node {
  name: "conv2d_1_input"
  op: "Placeholder"
  attr {
    key: "dtype"
    value {
      type: DT_FLOAT
    }
  }
  attr {
    key: "shape"
    value {
      shape {
        dim {
          size: -1
        }
        dim {
          size: 50
        }
        dim {
          size: 50
        }
        dim {
          size: 3
        }
      }
    }
  }
}
node {
  name: "conv2d_1/random_uniform/shape"
  op: "Const"
  attr {
    key: "dtype"
    value {
      type: DT_INT32
    }
  }
  attr {
    key: "value"
    value {
      tensor {
        dtype: DT_INT32
        tensor_shape {
          dim {
            size: 4
          }
        }
        tensor_content: "\001\000\000\000\001\000\000\000\003\000\000\000 \000\000\000"
      }
    }
  }
}
node {
  name: "conv2d_1/random_uniform/min"
  op: "Const"
  attr {
    key: "dtype"
    value {
      type: DT_FLOAT
    }
  }
  attr {
    key: "value"
    value {
      tensor {
        dtype: DT_FLOAT
        tensor_shape {
        }
        float_val: -0.41403934359550476
      }
    }
  }
}
node {
  name: "conv2d_1/random_uniform/max"
  op: "Const"
  attr {
    key: "dtype"
    value {
      type: DT_FLOAT
    }
  }
  attr {
    key: "value"
    value {
      tensor {
        dtype: DT_FLOAT
        tensor_shape {
        }
        float_val: 0.41403934359550476
      }
    }
  }
}
node {
  name: "conv2d_1/random_uniform/RandomUniform"
  op: "RandomUniform"
  input: "conv2d_1/random_uniform/shape"
  attr {
    key: "T"
    value {
      type: DT_INT32
    }
  }
  attr {
    key: "dtype"
    value {
      type: DT_FLOAT
    }
  }
  attr {
    key: "seed"
    value {
      i: 87654321
    }
  }
  attr {
    key: "seed2"
    value {
      i: 8325804
    }
  }
}
node {
  name: "conv2d_1/random_uniform/sub"
  op: "Sub"
  input: "conv2d_1/random_uniform/max"
  input: "conv2d_1/random_uniform/min"
  attr {
    key: "T"
    value {
      type: DT_FLOAT
    }
  }
}
node {
  name: "conv2d_1/random_uniform/mul"
  op: "Mul"
  input: "conv2d_1/random_uniform/RandomUniform"
  input: "conv2d_1/random_uniform/sub"
  attr {
    key: "T"
    value {
      type: DT_FLOAT
    }
  }
}
node {
  name: "conv2d_1/random_uniform"
  op: "Add"
  input: "conv2d_1/random_uniform/mul"
  input: "conv2d_1/random_uniform/min"
  attr {
    key: "T"
    value {
      type: DT_FLOAT
    }
  }
}
node {
  name: "conv2d_1/kernel"
  op: "VariableV2"
  attr {
    key: "container"
    value {
      s: ""
    }
  }
  attr {
    key: "dtype"
    value {
      type: DT_FLOAT
    }
  }
  attr {
    key: "shape"
    value {
      shape {
        dim {
          size: 1
        }
        dim {
          size: 1
        }
        dim {
          size: 3
        }
        dim {
          size: 32
        }
      }
    }
  }
  attr {
    key: "shared_name"
    value {
      s: ""
    }
  }
}
node {
  name: "conv2d_1/kernel/Assign"
  op: "Assign"
  input: "conv2d_1/kernel"
  input: "conv2d_1/random_uniform"
  attr {
    key: "T"
    value {
      type: DT_FLOAT
    }
  }
  attr {
    key: "_class"
    value {
      list {
        s: "loc:@conv2d_1/kernel"
      }
    }
  }
  attr {
    key: "use_locking"
    value {
      b: true
    }
  }
  attr {
    key: "validate_shape"
    value {
      b: true
    }
  }
}
node {
  name: "conv2d_1/kernel/read"
  op: "Identity"
  input: "conv2d_1/kernel"
  attr {
    key: "T"
    value {
      type: DT_FLOAT
    }
  }
  attr {
    key: "_class"
    value {
      list {
        s: "loc:@conv2d_1/kernel"
      }
    }
  }
}
node {
  name: "conv2d_1/Const"
  op: "Const"
  attr {
    key: "dtype"
    value {
      type: DT_FLOAT
    }
  }
  attr {
    key: "value"
    value {
      tensor {
        dtype: DT_FLOAT
        tensor_shape {
          dim {
            size: 32
          }
        }
        float_val: 0.0
      }
    }
  }
}
node {
  name: "conv2d_1/bias"
  op: "VariableV2"
  attr {
    key: "container"
    value {
      s: ""
    }
  }
  attr {
    key: "dtype"
    value {
      type: DT_FLOAT
    }
  }
  attr {
    key: "shape"
    value {
      shape {
        dim {
          size: 32
        }
      }
    }
  }
  attr {
    key: "shared_name"
    value {
      s: ""
    }
  }
}
node {
  name: "conv2d_1/bias/Assign"
  op: "Assign"
  input: "conv2d_1/bias"
  input: "conv2d_1/Const"
  attr {
    key: "T"
    value {
      type: DT_FLOAT
    }
  }
  attr {
    key: "_class"
    value {
      list {
        s: "loc:@conv2d_1/bias"
      }
    }
  }
  attr {
    key: "use_locking"
    value {
      b: true
    }
  }
  attr {
    key: "validate_shape"
    value {
      b: true
    }
  }
}
node {
  name: "conv2d_1/bias/read"
  op: "Identity"
  input: "conv2d_1/bias"
  attr {
    key: "T"
    value {
      type: DT_FLOAT
    }
  }
  attr {
    key: "_class"
    value {
      list {
        s: "loc:@conv2d_1/bias"
      }
    }
  }
}
node {
  name: "conv2d_1/convolution/dilation_rate"
  op: "Const"
  attr {
    key: "dtype"
    value {
      type: DT_INT32
    }
  }
  attr {
    key: "value"
    value {
      tensor {
        dtype: DT_INT32
        tensor_shape {
          dim {
            size: 2
          }
        }
        tensor_content: "\001\000\000\000\001\000\000\000"
      }
    }
  }
}
node {
  name: "conv2d_1/convolution"
  op: "Conv2D"
  input: "conv2d_1_input"
  input: "conv2d_1/kernel/read"
  attr {
    key: "T"
    value {
      type: DT_FLOAT
    }
  }
  attr {
    key: "data_format"
    value {
      s: "NHWC"
    }
  }
  attr {
    key: "padding"
    value {
      s: "VALID"
    }
  }
  attr {
    key: "strides"
    value {
      list {
        i: 1
        i: 1
        i: 1
        i: 1
      }
    }
  }
  attr {
    key: "use_cudnn_on_gpu"
    value {
      b: true
    }
  }
}
node {
  name: "conv2d_1/BiasAdd"
  op: "BiasAdd"
  input: "conv2d_1/convolution"
  input: "conv2d_1/bias/read"
  attr {
    key: "T"
    value {
      type: DT_FLOAT
    }
  }
  attr {
    key: "data_format"
    value {
      s: "NHWC"
    }
  }
}
node {
  name: "conv2d_1/Relu"
  op: "Relu"
  input: "conv2d_1/BiasAdd"
  attr {
    key: "T"
    value {
      type: DT_FLOAT
    }
  }
}
node {
  name: "max_pooling2d_1/MaxPool"
  op: "MaxPool"
  input: "conv2d_1/Relu"
  attr {
    key: "T"
    value {
      type: DT_FLOAT
    }
  }
  attr {
    key: "data_format"
    value {
      s: "NHWC"
    }
  }
  attr {
    key: "ksize"
    value {
      list {
        i: 1
        i: 3
        i: 3
        i: 1
      }
    }
  }
  attr {
    key: "padding"
    value {
      s: "VALID"
    }
  }
  attr {
    key: "strides"
    value {
      list {
        i: 1
        i: 3
        i: 3
        i: 1
      }
    }
  }
}
node {
  name: "conv2d_2/random_uniform/shape"
  op: "Const"
  attr {
    key: "dtype"
    value {
      type: DT_INT32
    }
  }
  attr {
    key: "value"
    value {
      tensor {
        dtype: DT_INT32
        tensor_shape {
          dim {
            size: 4
          }
        }
        tensor_content: "\005\000\000\000\005\000\000\000 \000\000\000 \000\000\000"
      }
    }
  }
}
node {
  name: "conv2d_2/random_uniform/min"
  op: "Const"
  attr {
    key: "dtype"
    value {
      type: DT_FLOAT
    }
  }
  attr {
    key: "value"
    value {
      tensor {
        dtype: DT_FLOAT
        tensor_shape {
        }
        float_val: -0.06123724207282066
      }
    }
  }
}
node {
  name: "conv2d_2/random_uniform/max"
  op: "Const"
  attr {
    key: "dtype"
    value {
      type: DT_FLOAT
    }
  }
  attr {
    key: "value"
    value {
      tensor {
        dtype: DT_FLOAT
        tensor_shape {
        }
        float_val: 0.06123724207282066
      }
    }
  }
}
node {
  name: "conv2d_2/random_uniform/RandomUniform"
  op: "RandomUniform"
  input: "conv2d_2/random_uniform/shape"
  attr {
    key: "T"
    value {
      type: DT_INT32
    }
  }
  attr {
    key: "dtype"
    value {
      type: DT_FLOAT
    }
  }
  attr {
    key: "seed"
    value {
      i: 87654321
    }
  }
  attr {
    key: "seed2"
    value {
      i: 1484405
    }
  }
}
node {
  name: "conv2d_2/random_uniform/sub"
  op: "Sub"
  input: "conv2d_2/random_uniform/max"
  input: "conv2d_2/random_uniform/min"
  attr {
    key: "T"
    value {
      type: DT_FLOAT
    }
  }
}
node {
  name: "conv2d_2/random_uniform/mul"
  op: "Mul"
  input: "conv2d_2/random_uniform/RandomUniform"
  input: "conv2d_2/random_uniform/sub"
  attr {
    key: "T"
    value {
      type: DT_FLOAT
    }
  }
}
node {
  name: "conv2d_2/random_uniform"
  op: "Add"
  input: "conv2d_2/random_uniform/mul"
  input: "conv2d_2/random_uniform/min"
  attr {
    key: "T"
    value {
      type: DT_FLOAT
    }
  }
}
node {
  name: "conv2d_2/kernel"
  op: "VariableV2"
  attr {
    key: "container"
    value {
      s: ""
    }
  }
  attr {
    key: "dtype"
    value {
      type: DT_FLOAT
    }
  }
  attr {
    key: "shape"
    value {
      shape {
        dim {
          size: 5
        }
        dim {
          size: 5
        }
        dim {
          size: 32
        }
        dim {
          size: 32
        }
      }
    }
  }
  attr {
    key: "shared_name"
    value {
      s: ""
    }
  }
}
node {
  name: "conv2d_2/kernel/Assign"
  op: "Assign"
  input: "conv2d_2/kernel"
  input: "conv2d_2/random_uniform"
  attr {
    key: "T"
    value {
      type: DT_FLOAT
    }
  }
  attr {
    key: "_class"
    value {
      list {
        s: "loc:@conv2d_2/kernel"
      }
    }
  }
  attr {
    key: "use_locking"
    value {
      b: true
    }
  }
  attr {
    key: "validate_shape"
    value {
      b: true
    }
  }
}
node {
  name: "conv2d_2/kernel/read"
  op: "Identity"
  input: "conv2d_2/kernel"
  attr {
    key: "T"
    value {
      type: DT_FLOAT
    }
  }
  attr {
    key: "_class"
    value {
      list {
        s: "loc:@conv2d_2/kernel"
      }
    }
  }
}
node {
  name: "conv2d_2/Const"
  op: "Const"
  attr {
    key: "dtype"
    value {
      type: DT_FLOAT
    }
  }
  attr {
    key: "value"
    value {
      tensor {
        dtype: DT_FLOAT
        tensor_shape {
          dim {
            size: 32
          }
        }
        float_val: 0.0
      }
    }
  }
}
node {
  name: "conv2d_2/bias"
  op: "VariableV2"
  attr {
    key: "container"
    value {
      s: ""
    }
  }
  attr {
    key: "dtype"
    value {
      type: DT_FLOAT
    }
  }
  attr {
    key: "shape"
    value {
      shape {
        dim {
          size: 32
        }
      }
    }
  }
  attr {
    key: "shared_name"
    value {
      s: ""
    }
  }
}
node {
  name: "conv2d_2/bias/Assign"
  op: "Assign"
  input: "conv2d_2/bias"
  input: "conv2d_2/Const"
  attr {
    key: "T"
    value {
      type: DT_FLOAT
    }
  }
  attr {
    key: "_class"
    value {
      list {
        s: "loc:@conv2d_2/bias"
      }
    }
  }
  attr {
    key: "use_locking"
    value {
      b: true
    }
  }
  attr {
    key: "validate_shape"
    value {
      b: true
    }
  }
}
node {
  name: "conv2d_2/bias/read"
  op: "Identity"
  input: "conv2d_2/bias"
  attr {
    key: "T"
    value {
      type: DT_FLOAT
    }
  }
  attr {
    key: "_class"
    value {
      list {
        s: "loc:@conv2d_2/bias"
      }
    }
  }
}
node {
  name: "conv2d_2/convolution/dilation_rate"
  op: "Const"
  attr {
    key: "dtype"
    value {
      type: DT_INT32
    }
  }
  attr {
    key: "value"
    value {
      tensor {
        dtype: DT_INT32
        tensor_shape {
          dim {
            size: 2
          }
        }
        tensor_content: "\001\000\000\000\001\000\000\000"
      }
    }
  }
}
node {
  name: "conv2d_2/convolution"
  op: "Conv2D"
  input: "max_pooling2d_1/MaxPool"
  input: "conv2d_2/kernel/read"
  attr {
    key: "T"
    value {
      type: DT_FLOAT
    }
  }
  attr {
    key: "data_format"
    value {
      s: "NHWC"
    }
  }
  attr {
    key: "padding"
    value {
      s: "VALID"
    }
  }
  attr {
    key: "strides"
    value {
      list {
        i: 1
        i: 1
        i: 1
        i: 1
      }
    }
  }
  attr {
    key: "use_cudnn_on_gpu"
    value {
      b: true
    }
  }
}
node {
  name: "conv2d_2/BiasAdd"
  op: "BiasAdd"
  input: "conv2d_2/convolution"
  input: "conv2d_2/bias/read"
  attr {
    key: "T"
    value {
      type: DT_FLOAT
    }
  }
  attr {
    key: "data_format"
    value {
      s: "NHWC"
    }
  }
}
node {
  name: "conv2d_2/Relu"
  op: "Relu"
  input: "conv2d_2/BiasAdd"
  attr {
    key: "T"
    value {
      type: DT_FLOAT
    }
  }
}
node {
  name: "max_pooling2d_2/MaxPool"
  op: "MaxPool"
  input: "conv2d_2/Relu"
  attr {
    key: "T"
    value {
      type: DT_FLOAT
    }
  }
  attr {
    key: "data_format"
    value {
      s: "NHWC"
    }
  }
  attr {
    key: "ksize"
    value {
      list {
        i: 1
        i: 3
        i: 3
        i: 1
      }
    }
  }
  attr {
    key: "padding"
    value {
      s: "VALID"
    }
  }
  attr {
    key: "strides"
    value {
      list {
        i: 1
        i: 3
        i: 3
        i: 1
      }
    }
  }
}
node {
  name: "flatten_1/Shape"
  op: "Shape"
  input: "max_pooling2d_2/MaxPool"
  attr {
    key: "T"
    value {
      type: DT_FLOAT
    }
  }
  attr {
    key: "out_type"
    value {
      type: DT_INT32
    }
  }
}
node {
  name: "flatten_1/strided_slice/stack"
  op: "Const"
  attr {
    key: "dtype"
    value {
      type: DT_INT32
    }
  }
  attr {
    key: "value"
    value {
      tensor {
        dtype: DT_INT32
        tensor_shape {
          dim {
            size: 1
          }
        }
        int_val: 1
      }
    }
  }
}
node {
  name: "flatten_1/strided_slice/stack_1"
  op: "Const"
  attr {
    key: "dtype"
    value {
      type: DT_INT32
    }
  }
  attr {
    key: "value"
    value {
      tensor {
        dtype: DT_INT32
        tensor_shape {
          dim {
            size: 1
          }
        }
        int_val: 0
      }
    }
  }
}
node {
  name: "flatten_1/strided_slice/stack_2"
  op: "Const"
  attr {
    key: "dtype"
    value {
      type: DT_INT32
    }
  }
  attr {
    key: "value"
    value {
      tensor {
        dtype: DT_INT32
        tensor_shape {
          dim {
            size: 1
          }
        }
        int_val: 1
      }
    }
  }
}
node {
  name: "flatten_1/strided_slice"
  op: "StridedSlice"
  input: "flatten_1/Shape"
  input: "flatten_1/strided_slice/stack"
  input: "flatten_1/strided_slice/stack_1"
  input: "flatten_1/strided_slice/stack_2"
  attr {
    key: "Index"
    value {
      type: DT_INT32
    }
  }
  attr {
    key: "T"
    value {
      type: DT_INT32
    }
  }
  attr {
    key: "begin_mask"
    value {
      i: 0
    }
  }
  attr {
    key: "ellipsis_mask"
    value {
      i: 0
    }
  }
  attr {
    key: "end_mask"
    value {
      i: 1
    }
  }
  attr {
    key: "new_axis_mask"
    value {
      i: 0
    }
  }
  attr {
    key: "shrink_axis_mask"
    value {
      i: 0
    }
  }
}
node {
  name: "flatten_1/Const"
  op: "Const"
  attr {
    key: "dtype"
    value {
      type: DT_INT32
    }
  }
  attr {
    key: "value"
    value {
      tensor {
        dtype: DT_INT32
        tensor_shape {
          dim {
            size: 1
          }
        }
        int_val: 0
      }
    }
  }
}
node {
  name: "flatten_1/Prod"
  op: "Prod"
  input: "flatten_1/strided_slice"
  input: "flatten_1/Const"
  attr {
    key: "T"
    value {
      type: DT_INT32
    }
  }
  attr {
    key: "Tidx"
    value {
      type: DT_INT32
    }
  }
  attr {
    key: "keep_dims"
    value {
      b: false
    }
  }
}
node {
  name: "flatten_1/stack/0"
  op: "Const"
  attr {
    key: "dtype"
    value {
      type: DT_INT32
    }
  }
  attr {
    key: "value"
    value {
      tensor {
        dtype: DT_INT32
        tensor_shape {
        }
        int_val: -1
      }
    }
  }
}
node {
  name: "flatten_1/stack"
  op: "Pack"
  input: "flatten_1/stack/0"
  input: "flatten_1/Prod"
  attr {
    key: "N"
    value {
      i: 2
    }
  }
  attr {
    key: "T"
    value {
      type: DT_INT32
    }
  }
  attr {
    key: "axis"
    value {
      i: 0
    }
  }
}
node {
  name: "flatten_1/Reshape"
  op: "Reshape"
  input: "max_pooling2d_2/MaxPool"
  input: "flatten_1/stack"
  attr {
    key: "T"
    value {
      type: DT_FLOAT
    }
  }
  attr {
    key: "Tshape"
    value {
      type: DT_INT32
    }
  }
}
node {
  name: "dense_1/random_uniform/shape"
  op: "Const"
  attr {
    key: "dtype"
    value {
      type: DT_INT32
    }
  }
  attr {
    key: "value"
    value {
      tensor {
        dtype: DT_INT32
        tensor_shape {
          dim {
            size: 2
          }
        }
        tensor_content: "\000\002\000\000d\000\000\000"
      }
    }
  }
}
node {
  name: "dense_1/random_uniform/min"
  op: "Const"
  attr {
    key: "dtype"
    value {
      type: DT_FLOAT
    }
  }
  attr {
    key: "value"
    value {
      tensor {
        dtype: DT_FLOAT
        tensor_shape {
        }
        float_val: -0.0990147516131401
      }
    }
  }
}
node {
  name: "dense_1/random_uniform/max"
  op: "Const"
  attr {
    key: "dtype"
    value {
      type: DT_FLOAT
    }
  }
  attr {
    key: "value"
    value {
      tensor {
        dtype: DT_FLOAT
        tensor_shape {
        }
        float_val: 0.0990147516131401
      }
    }
  }
}
node {
  name: "dense_1/random_uniform/RandomUniform"
  op: "RandomUniform"
  input: "dense_1/random_uniform/shape"
  attr {
    key: "T"
    value {
      type: DT_INT32
    }
  }
  attr {
    key: "dtype"
    value {
      type: DT_FLOAT
    }
  }
  attr {
    key: "seed"
    value {
      i: 87654321
    }
  }
  attr {
    key: "seed2"
    value {
      i: 2215104
    }
  }
}
node {
  name: "dense_1/random_uniform/sub"
  op: "Sub"
  input: "dense_1/random_uniform/max"
  input: "dense_1/random_uniform/min"
  attr {
    key: "T"
    value {
      type: DT_FLOAT
    }
  }
}
node {
  name: "dense_1/random_uniform/mul"
  op: "Mul"
  input: "dense_1/random_uniform/RandomUniform"
  input: "dense_1/random_uniform/sub"
  attr {
    key: "T"
    value {
      type: DT_FLOAT
    }
  }
}
node {
  name: "dense_1/random_uniform"
  op: "Add"
  input: "dense_1/random_uniform/mul"
  input: "dense_1/random_uniform/min"
  attr {
    key: "T"
    value {
      type: DT_FLOAT
    }
  }
}
node {
  name: "dense_1/kernel"
  op: "VariableV2"
  attr {
    key: "container"
    value {
      s: ""
    }
  }
  attr {
    key: "dtype"
    value {
      type: DT_FLOAT
    }
  }
  attr {
    key: "shape"
    value {
      shape {
        dim {
          size: 512
        }
        dim {
          size: 100
        }
      }
    }
  }
  attr {
    key: "shared_name"
    value {
      s: ""
    }
  }
}
node {
  name: "dense_1/kernel/Assign"
  op: "Assign"
  input: "dense_1/kernel"
  input: "dense_1/random_uniform"
  attr {
    key: "T"
    value {
      type: DT_FLOAT
    }
  }
  attr {
    key: "_class"
    value {
      list {
        s: "loc:@dense_1/kernel"
      }
    }
  }
  attr {
    key: "use_locking"
    value {
      b: true
    }
  }
  attr {
    key: "validate_shape"
    value {
      b: true
    }
  }
}
node {
  name: "dense_1/kernel/read"
  op: "Identity"
  input: "dense_1/kernel"
  attr {
    key: "T"
    value {
      type: DT_FLOAT
    }
  }
  attr {
    key: "_class"
    value {
      list {
        s: "loc:@dense_1/kernel"
      }
    }
  }
}
node {
  name: "dense_1/Const"
  op: "Const"
  attr {
    key: "dtype"
    value {
      type: DT_FLOAT
    }
  }
  attr {
    key: "value"
    value {
      tensor {
        dtype: DT_FLOAT
        tensor_shape {
          dim {
            size: 100
          }
        }
        float_val: 0.0
      }
    }
  }
}
node {
  name: "dense_1/bias"
  op: "VariableV2"
  attr {
    key: "container"
    value {
      s: ""
    }
  }
  attr {
    key: "dtype"
    value {
      type: DT_FLOAT
    }
  }
  attr {
    key: "shape"
    value {
      shape {
        dim {
          size: 100
        }
      }
    }
  }
  attr {
    key: "shared_name"
    value {
      s: ""
    }
  }
}
node {
  name: "dense_1/bias/Assign"
  op: "Assign"
  input: "dense_1/bias"
  input: "dense_1/Const"
  attr {
    key: "T"
    value {
      type: DT_FLOAT
    }
  }
  attr {
    key: "_class"
    value {
      list {
        s: "loc:@dense_1/bias"
      }
    }
  }
  attr {
    key: "use_locking"
    value {
      b: true
    }
  }
  attr {
    key: "validate_shape"
    value {
      b: true
    }
  }
}
node {
  name: "dense_1/bias/read"
  op: "Identity"
  input: "dense_1/bias"
  attr {
    key: "T"
    value {
      type: DT_FLOAT
    }
  }
  attr {
    key: "_class"
    value {
      list {
        s: "loc:@dense_1/bias"
      }
    }
  }
}
node {
  name: "dense_1/MatMul"
  op: "MatMul"
  input: "flatten_1/Reshape"
  input: "dense_1/kernel/read"
  attr {
    key: "T"
    value {
      type: DT_FLOAT
    }
  }
  attr {
    key: "transpose_a"
    value {
      b: false
    }
  }
  attr {
    key: "transpose_b"
    value {
      b: false
    }
  }
}
node {
  name: "dense_1/BiasAdd"
  op: "BiasAdd"
  input: "dense_1/MatMul"
  input: "dense_1/bias/read"
  attr {
    key: "T"
    value {
      type: DT_FLOAT
    }
  }
  attr {
    key: "data_format"
    value {
      s: "NHWC"
    }
  }
}
node {
  name: "dense_1/Relu"
  op: "Relu"
  input: "dense_1/BiasAdd"
  attr {
    key: "T"
    value {
      type: DT_FLOAT
    }
  }
}
node {
  name: "dropout_1/keras_learning_phase"
  op: "Placeholder"
  attr {
    key: "dtype"
    value {
      type: DT_BOOL
    }
  }
  attr {
    key: "shape"
    value {
      shape {
        unknown_rank: true
      }
    }
  }
}
node {
  name: "dropout_1/cond/Switch"
  op: "Switch"
  input: "dropout_1/keras_learning_phase"
  input: "dropout_1/keras_learning_phase"
  attr {
    key: "T"
    value {
      type: DT_BOOL
    }
  }
}
node {
  name: "dropout_1/cond/switch_t"
  op: "Identity"
  input: "dropout_1/cond/Switch:1"
  attr {
    key: "T"
    value {
      type: DT_BOOL
    }
  }
}
node {
  name: "dropout_1/cond/switch_f"
  op: "Identity"
  input: "dropout_1/cond/Switch"
  attr {
    key: "T"
    value {
      type: DT_BOOL
    }
  }
}
node {
  name: "dropout_1/cond/pred_id"
  op: "Identity"
  input: "dropout_1/keras_learning_phase"
  attr {
    key: "T"
    value {
      type: DT_BOOL
    }
  }
}
node {
  name: "dropout_1/cond/mul/y"
  op: "Const"
  input: "^dropout_1/cond/switch_t"
  attr {
    key: "dtype"
    value {
      type: DT_FLOAT
    }
  }
  attr {
    key: "value"
    value {
      tensor {
        dtype: DT_FLOAT
        tensor_shape {
        }
        float_val: 1.0
      }
    }
  }
}
node {
  name: "dropout_1/cond/mul/Switch"
  op: "Switch"
  input: "dense_1/Relu"
  input: "dropout_1/cond/pred_id"
  attr {
    key: "T"
    value {
      type: DT_FLOAT
    }
  }
  attr {
    key: "_class"
    value {
      list {
        s: "loc:@dense_1/Relu"
      }
    }
  }
}
node {
  name: "dropout_1/cond/mul"
  op: "Mul"
  input: "dropout_1/cond/mul/Switch:1"
  input: "dropout_1/cond/mul/y"
  attr {
    key: "T"
    value {
      type: DT_FLOAT
    }
  }
}
node {
  name: "dropout_1/cond/dropout/keep_prob"
  op: "Const"
  input: "^dropout_1/cond/switch_t"
  attr {
    key: "dtype"
    value {
      type: DT_FLOAT
    }
  }
  attr {
    key: "value"
    value {
      tensor {
        dtype: DT_FLOAT
        tensor_shape {
        }
        float_val: 0.5
      }
    }
  }
}
node {
  name: "dropout_1/cond/dropout/Shape"
  op: "Shape"
  input: "dropout_1/cond/mul"
  attr {
    key: "T"
    value {
      type: DT_FLOAT
    }
  }
  attr {
    key: "out_type"
    value {
      type: DT_INT32
    }
  }
}
node {
  name: "dropout_1/cond/dropout/random_uniform/min"
  op: "Const"
  input: "^dropout_1/cond/switch_t"
  attr {
    key: "dtype"
    value {
      type: DT_FLOAT
    }
  }
  attr {
    key: "value"
    value {
      tensor {
        dtype: DT_FLOAT
        tensor_shape {
        }
        float_val: 0.0
      }
    }
  }
}
node {
  name: "dropout_1/cond/dropout/random_uniform/max"
  op: "Const"
  input: "^dropout_1/cond/switch_t"
  attr {
    key: "dtype"
    value {
      type: DT_FLOAT
    }
  }
  attr {
    key: "value"
    value {
      tensor {
        dtype: DT_FLOAT
        tensor_shape {
        }
        float_val: 1.0
      }
    }
  }
}
node {
  name: "dropout_1/cond/dropout/random_uniform/RandomUniform"
  op: "RandomUniform"
  input: "dropout_1/cond/dropout/Shape"
  attr {
    key: "T"
    value {
      type: DT_INT32
    }
  }
  attr {
    key: "dtype"
    value {
      type: DT_FLOAT
    }
  }
  attr {
    key: "seed"
    value {
      i: 87654321
    }
  }
  attr {
    key: "seed2"
    value {
      i: 5157699
    }
  }
}
node {
  name: "dropout_1/cond/dropout/random_uniform/sub"
  op: "Sub"
  input: "dropout_1/cond/dropout/random_uniform/max"
  input: "dropout_1/cond/dropout/random_uniform/min"
  attr {
    key: "T"
    value {
      type: DT_FLOAT
    }
  }
}
node {
  name: "dropout_1/cond/dropout/random_uniform/mul"
  op: "Mul"
  input: "dropout_1/cond/dropout/random_uniform/RandomUniform"
  input: "dropout_1/cond/dropout/random_uniform/sub"
  attr {
    key: "T"
    value {
      type: DT_FLOAT
    }
  }
}
node {
  name: "dropout_1/cond/dropout/random_uniform"
  op: "Add"
  input: "dropout_1/cond/dropout/random_uniform/mul"
  input: "dropout_1/cond/dropout/random_uniform/min"
  attr {
    key: "T"
    value {
      type: DT_FLOAT
    }
  }
}
node {
  name: "dropout_1/cond/dropout/add"
  op: "Add"
  input: "dropout_1/cond/dropout/keep_prob"
  input: "dropout_1/cond/dropout/random_uniform"
  attr {
    key: "T"
    value {
      type: DT_FLOAT
    }
  }
}
node {
  name: "dropout_1/cond/dropout/Floor"
  op: "Floor"
  input: "dropout_1/cond/dropout/add"
  attr {
    key: "T"
    value {
      type: DT_FLOAT
    }
  }
}
node {
  name: "dropout_1/cond/dropout/div"
  op: "RealDiv"
  input: "dropout_1/cond/mul"
  input: "dropout_1/cond/dropout/keep_prob"
  attr {
    key: "T"
    value {
      type: DT_FLOAT
    }
  }
}
node {
  name: "dropout_1/cond/dropout/mul"
  op: "Mul"
  input: "dropout_1/cond/dropout/div"
  input: "dropout_1/cond/dropout/Floor"
  attr {
    key: "T"
    value {
      type: DT_FLOAT
    }
  }
}
node {
  name: "dropout_1/cond/Switch_1"
  op: "Switch"
  input: "dense_1/Relu"
  input: "dropout_1/cond/pred_id"
  attr {
    key: "T"
    value {
      type: DT_FLOAT
    }
  }
  attr {
    key: "_class"
    value {
      list {
        s: "loc:@dense_1/Relu"
      }
    }
  }
}
node {
  name: "dropout_1/cond/Merge"
  op: "Merge"
  input: "dropout_1/cond/Switch_1"
  input: "dropout_1/cond/dropout/mul"
  attr {
    key: "N"
    value {
      i: 2
    }
  }
  attr {
    key: "T"
    value {
      type: DT_FLOAT
    }
  }
}
node {
  name: "dense_2/random_uniform/shape"
  op: "Const"
  attr {
    key: "dtype"
    value {
      type: DT_INT32
    }
  }
  attr {
    key: "value"
    value {
      tensor {
        dtype: DT_INT32
        tensor_shape {
          dim {
            size: 2
          }
        }
        tensor_content: "d\000\000\000\005\000\000\000"
      }
    }
  }
}
node {
  name: "dense_2/random_uniform/min"
  op: "Const"
  attr {
    key: "dtype"
    value {
      type: DT_FLOAT
    }
  }
  attr {
    key: "value"
    value {
      tensor {
        dtype: DT_FLOAT
        tensor_shape {
        }
        float_val: -0.23904572427272797
      }
    }
  }
}
node {
  name: "dense_2/random_uniform/max"
  op: "Const"
  attr {
    key: "dtype"
    value {
      type: DT_FLOAT
    }
  }
  attr {
    key: "value"
    value {
      tensor {
        dtype: DT_FLOAT
        tensor_shape {
        }
        float_val: 0.23904572427272797
      }
    }
  }
}
node {
  name: "dense_2/random_uniform/RandomUniform"
  op: "RandomUniform"
  input: "dense_2/random_uniform/shape"
  attr {
    key: "T"
    value {
      type: DT_INT32
    }
  }
  attr {
    key: "dtype"
    value {
      type: DT_FLOAT
    }
  }
  attr {
    key: "seed"
    value {
      i: 87654321
    }
  }
  attr {
    key: "seed2"
    value {
      i: 8222403
    }
  }
}
node {
  name: "dense_2/random_uniform/sub"
  op: "Sub"
  input: "dense_2/random_uniform/max"
  input: "dense_2/random_uniform/min"
  attr {
    key: "T"
    value {
      type: DT_FLOAT
    }
  }
}
node {
  name: "dense_2/random_uniform/mul"
  op: "Mul"
  input: "dense_2/random_uniform/RandomUniform"
  input: "dense_2/random_uniform/sub"
  attr {
    key: "T"
    value {
      type: DT_FLOAT
    }
  }
}
node {
  name: "dense_2/random_uniform"
  op: "Add"
  input: "dense_2/random_uniform/mul"
  input: "dense_2/random_uniform/min"
  attr {
    key: "T"
    value {
      type: DT_FLOAT
    }
  }
}
node {
  name: "dense_2/kernel"
  op: "VariableV2"
  attr {
    key: "container"
    value {
      s: ""
    }
  }
  attr {
    key: "dtype"
    value {
      type: DT_FLOAT
    }
  }
  attr {
    key: "shape"
    value {
      shape {
        dim {
          size: 100
        }
        dim {
          size: 5
        }
      }
    }
  }
  attr {
    key: "shared_name"
    value {
      s: ""
    }
  }
}
node {
  name: "dense_2/kernel/Assign"
  op: "Assign"
  input: "dense_2/kernel"
  input: "dense_2/random_uniform"
  attr {
    key: "T"
    value {
      type: DT_FLOAT
    }
  }
  attr {
    key: "_class"
    value {
      list {
        s: "loc:@dense_2/kernel"
      }
    }
  }
  attr {
    key: "use_locking"
    value {
      b: true
    }
  }
  attr {
    key: "validate_shape"
    value {
      b: true
    }
  }
}
node {
  name: "dense_2/kernel/read"
  op: "Identity"
  input: "dense_2/kernel"
  attr {
    key: "T"
    value {
      type: DT_FLOAT
    }
  }
  attr {
    key: "_class"
    value {
      list {
        s: "loc:@dense_2/kernel"
      }
    }
  }
}
node {
  name: "dense_2/Const"
  op: "Const"
  attr {
    key: "dtype"
    value {
      type: DT_FLOAT
    }
  }
  attr {
    key: "value"
    value {
      tensor {
        dtype: DT_FLOAT
        tensor_shape {
          dim {
            size: 5
          }
        }
        float_val: 0.0
      }
    }
  }
}
node {
  name: "dense_2/bias"
  op: "VariableV2"
  attr {
    key: "container"
    value {
      s: ""
    }
  }
  attr {
    key: "dtype"
    value {
      type: DT_FLOAT
    }
  }
  attr {
    key: "shape"
    value {
      shape {
        dim {
          size: 5
        }
      }
    }
  }
  attr {
    key: "shared_name"
    value {
      s: ""
    }
  }
}
node {
  name: "dense_2/bias/Assign"
  op: "Assign"
  input: "dense_2/bias"
  input: "dense_2/Const"
  attr {
    key: "T"
    value {
      type: DT_FLOAT
    }
  }
  attr {
    key: "_class"
    value {
      list {
        s: "loc:@dense_2/bias"
      }
    }
  }
  attr {
    key: "use_locking"
    value {
      b: true
    }
  }
  attr {
    key: "validate_shape"
    value {
      b: true
    }
  }
}
node {
  name: "dense_2/bias/read"
  op: "Identity"
  input: "dense_2/bias"
  attr {
    key: "T"
    value {
      type: DT_FLOAT
    }
  }
  attr {
    key: "_class"
    value {
      list {
        s: "loc:@dense_2/bias"
      }
    }
  }
}
node {
  name: "dense_2/MatMul"
  op: "MatMul"
  input: "dropout_1/cond/Merge"
  input: "dense_2/kernel/read"
  attr {
    key: "T"
    value {
      type: DT_FLOAT
    }
  }
  attr {
    key: "transpose_a"
    value {
      b: false
    }
  }
  attr {
    key: "transpose_b"
    value {
      b: false
    }
  }
}
node {
  name: "dense_2/BiasAdd"
  op: "BiasAdd"
  input: "dense_2/MatMul"
  input: "dense_2/bias/read"
  attr {
    key: "T"
    value {
      type: DT_FLOAT
    }
  }
  attr {
    key: "data_format"
    value {
      s: "NHWC"
    }
  }
}
node {
  name: "dense_2/Softmax"
  op: "Softmax"
  input: "dense_2/BiasAdd"
  attr {
    key: "T"
    value {
      type: DT_FLOAT
    }
  }
}
node {
  name: "Adam/iterations/initial_value"
  op: "Const"
  attr {
    key: "dtype"
    value {
      type: DT_INT64
    }
  }
  attr {
    key: "value"
    value {
      tensor {
        dtype: DT_INT64
        tensor_shape {
        }
        int64_val: 0
      }
    }
  }
}
node {
  name: "Adam/iterations"
  op: "VariableV2"
  attr {
    key: "container"
    value {
      s: ""
    }
  }
  attr {
    key: "dtype"
    value {
      type: DT_INT64
    }
  }
  attr {
    key: "shape"
    value {
      shape {
      }
    }
  }
  attr {
    key: "shared_name"
    value {
      s: ""
    }
  }
}
node {
  name: "Adam/iterations/Assign"
  op: "Assign"
  input: "Adam/iterations"
  input: "Adam/iterations/initial_value"
  attr {
    key: "T"
    value {
      type: DT_INT64
    }
  }
  attr {
    key: "_class"
    value {
      list {
        s: "loc:@Adam/iterations"
      }
    }
  }
  attr {
    key: "use_locking"
    value {
      b: true
    }
  }
  attr {
    key: "validate_shape"
    value {
      b: true
    }
  }
}
node {
  name: "Adam/iterations/read"
  op: "Identity"
  input: "Adam/iterations"
  attr {
    key: "T"
    value {
      type: DT_INT64
    }
  }
  attr {
    key: "_class"
    value {
      list {
        s: "loc:@Adam/iterations"
      }
    }
  }
}
node {
  name: "Adam/lr/initial_value"
  op: "Const"
  attr {
    key: "dtype"
    value {
      type: DT_FLOAT
    }
  }
  attr {
    key: "value"
    value {
      tensor {
        dtype: DT_FLOAT
        tensor_shape {
        }
        float_val: 0.0010000000474974513
      }
    }
  }
}
node {
  name: "Adam/lr"
  op: "VariableV2"
  attr {
    key: "container"
    value {
      s: ""
    }
  }
  attr {
    key: "dtype"
    value {
      type: DT_FLOAT
    }
  }
  attr {
    key: "shape"
    value {
      shape {
      }
    }
  }
  attr {
    key: "shared_name"
    value {
      s: ""
    }
  }
}
node {
  name: "Adam/lr/Assign"
  op: "Assign"
  input: "Adam/lr"
  input: "Adam/lr/initial_value"
  attr {
    key: "T"
    value {
      type: DT_FLOAT
    }
  }
  attr {
    key: "_class"
    value {
      list {
        s: "loc:@Adam/lr"
      }
    }
  }
  attr {
    key: "use_locking"
    value {
      b: true
    }
  }
  attr {
    key: "validate_shape"
    value {
      b: true
    }
  }
}
node {
  name: "Adam/lr/read"
  op: "Identity"
  input: "Adam/lr"
  attr {
    key: "T"
    value {
      type: DT_FLOAT
    }
  }
  attr {
    key: "_class"
    value {
      list {
        s: "loc:@Adam/lr"
      }
    }
  }
}
node {
  name: "Adam/beta_1/initial_value"
  op: "Const"
  attr {
    key: "dtype"
    value {
      type: DT_FLOAT
    }
  }
  attr {
    key: "value"
    value {
      tensor {
        dtype: DT_FLOAT
        tensor_shape {
        }
        float_val: 0.8999999761581421
      }
    }
  }
}
node {
  name: "Adam/beta_1"
  op: "VariableV2"
  attr {
    key: "container"
    value {
      s: ""
    }
  }
  attr {
    key: "dtype"
    value {
      type: DT_FLOAT
    }
  }
  attr {
    key: "shape"
    value {
      shape {
      }
    }
  }
  attr {
    key: "shared_name"
    value {
      s: ""
    }
  }
}
node {
  name: "Adam/beta_1/Assign"
  op: "Assign"
  input: "Adam/beta_1"
  input: "Adam/beta_1/initial_value"
  attr {
    key: "T"
    value {
      type: DT_FLOAT
    }
  }
  attr {
    key: "_class"
    value {
      list {
        s: "loc:@Adam/beta_1"
      }
    }
  }
  attr {
    key: "use_locking"
    value {
      b: true
    }
  }
  attr {
    key: "validate_shape"
    value {
      b: true
    }
  }
}
node {
  name: "Adam/beta_1/read"
  op: "Identity"
  input: "Adam/beta_1"
  attr {
    key: "T"
    value {
      type: DT_FLOAT
    }
  }
  attr {
    key: "_class"
    value {
      list {
        s: "loc:@Adam/beta_1"
      }
    }
  }
}
node {
  name: "Adam/beta_2/initial_value"
  op: "Const"
  attr {
    key: "dtype"
    value {
      type: DT_FLOAT
    }
  }
  attr {
    key: "value"
    value {
      tensor {
        dtype: DT_FLOAT
        tensor_shape {
        }
        float_val: 0.9990000128746033
      }
    }
  }
}
node {
  name: "Adam/beta_2"
  op: "VariableV2"
  attr {
    key: "container"
    value {
      s: ""
    }
  }
  attr {
    key: "dtype"
    value {
      type: DT_FLOAT
    }
  }
  attr {
    key: "shape"
    value {
      shape {
      }
    }
  }
  attr {
    key: "shared_name"
    value {
      s: ""
    }
  }
}
node {
  name: "Adam/beta_2/Assign"
  op: "Assign"
  input: "Adam/beta_2"
  input: "Adam/beta_2/initial_value"
  attr {
    key: "T"
    value {
      type: DT_FLOAT
    }
  }
  attr {
    key: "_class"
    value {
      list {
        s: "loc:@Adam/beta_2"
      }
    }
  }
  attr {
    key: "use_locking"
    value {
      b: true
    }
  }
  attr {
    key: "validate_shape"
    value {
      b: true
    }
  }
}
node {
  name: "Adam/beta_2/read"
  op: "Identity"
  input: "Adam/beta_2"
  attr {
    key: "T"
    value {
      type: DT_FLOAT
    }
  }
  attr {
    key: "_class"
    value {
      list {
        s: "loc:@Adam/beta_2"
      }
    }
  }
}
node {
  name: "Adam/decay/initial_value"
  op: "Const"
  attr {
    key: "dtype"
    value {
      type: DT_FLOAT
    }
  }
  attr {
    key: "value"
    value {
      tensor {
        dtype: DT_FLOAT
        tensor_shape {
        }
        float_val: 0.0
      }
    }
  }
}
node {
  name: "Adam/decay"
  op: "VariableV2"
  attr {
    key: "container"
    value {
      s: ""
    }
  }
  attr {
    key: "dtype"
    value {
      type: DT_FLOAT
    }
  }
  attr {
    key: "shape"
    value {
      shape {
      }
    }
  }
  attr {
    key: "shared_name"
    value {
      s: ""
    }
  }
}
node {
  name: "Adam/decay/Assign"
  op: "Assign"
  input: "Adam/decay"
  input: "Adam/decay/initial_value"
  attr {
    key: "T"
    value {
      type: DT_FLOAT
    }
  }
  attr {
    key: "_class"
    value {
      list {
        s: "loc:@Adam/decay"
      }
    }
  }
  attr {
    key: "use_locking"
    value {
      b: true
    }
  }
  attr {
    key: "validate_shape"
    value {
      b: true
    }
  }
}
node {
  name: "Adam/decay/read"
  op: "Identity"
  input: "Adam/decay"
  attr {
    key: "T"
    value {
      type: DT_FLOAT
    }
  }
  attr {
    key: "_class"
    value {
      list {
        s: "loc:@Adam/decay"
      }
    }
  }
}
node {
  name: "dense_2_target"
  op: "Placeholder"
  attr {
    key: "dtype"
    value {
      type: DT_FLOAT
    }
  }
  attr {
    key: "shape"
    value {
      shape {
        dim {
          size: -1
        }
        dim {
          size: -1
        }
      }
    }
  }
}
node {
  name: "dense_2_sample_weights"
  op: "Placeholder"
  attr {
    key: "dtype"
    value {
      type: DT_FLOAT
    }
  }
  attr {
    key: "shape"
    value {
      shape {
        dim {
          size: -1
        }
      }
    }
  }
}
node {
  name: "loss/dense_2_loss/Sum/reduction_indices"
  op: "Const"
  attr {
    key: "dtype"
    value {
      type: DT_INT32
    }
  }
  attr {
    key: "value"
    value {
      tensor {
        dtype: DT_INT32
        tensor_shape {
        }
        int_val: 1
      }
    }
  }
}
node {
  name: "loss/dense_2_loss/Sum"
  op: "Sum"
  input: "dense_2/Softmax"
  input: "loss/dense_2_loss/Sum/reduction_indices"
  attr {
    key: "T"
    value {
      type: DT_FLOAT
    }
  }
  attr {
    key: "Tidx"
    value {
      type: DT_INT32
    }
  }
  attr {
    key: "keep_dims"
    value {
      b: true
    }
  }
}
node {
  name: "loss/dense_2_loss/truediv"
  op: "RealDiv"
  input: "dense_2/Softmax"
  input: "loss/dense_2_loss/Sum"
  attr {
    key: "T"
    value {
      type: DT_FLOAT
    }
  }
}
node {
  name: "loss/dense_2_loss/Const"
  op: "Const"
  attr {
    key: "dtype"
    value {
      type: DT_FLOAT
    }
  }
  attr {
    key: "value"
    value {
      tensor {
        dtype: DT_FLOAT
        tensor_shape {
        }
        float_val: 1.0000000116860974e-07
      }
    }
  }
}
node {
  name: "loss/dense_2_loss/sub/x"
  op: "Const"
  attr {
    key: "dtype"
    value {
      type: DT_FLOAT
    }
  }
  attr {
    key: "value"
    value {
      tensor {
        dtype: DT_FLOAT
        tensor_shape {
        }
        float_val: 1.0
      }
    }
  }
}
node {
  name: "loss/dense_2_loss/sub"
  op: "Sub"
  input: "loss/dense_2_loss/sub/x"
  input: "loss/dense_2_loss/Const"
  attr {
    key: "T"
    value {
      type: DT_FLOAT
    }
  }
}
node {
  name: "loss/dense_2_loss/clip_by_value/Minimum"
  op: "Minimum"
  input: "loss/dense_2_loss/truediv"
  input: "loss/dense_2_loss/sub"
  attr {
    key: "T"
    value {
      type: DT_FLOAT
    }
  }
}
node {
  name: "loss/dense_2_loss/clip_by_value"
  op: "Maximum"
  input: "loss/dense_2_loss/clip_by_value/Minimum"
  input: "loss/dense_2_loss/Const"
  attr {
    key: "T"
    value {
      type: DT_FLOAT
    }
  }
}
node {
  name: "loss/dense_2_loss/Log"
  op: "Log"
  input: "loss/dense_2_loss/clip_by_value"
  attr {
    key: "T"
    value {
      type: DT_FLOAT
    }
  }
}
node {
  name: "loss/dense_2_loss/mul"
  op: "Mul"
  input: "dense_2_target"
  input: "loss/dense_2_loss/Log"
  attr {
    key: "T"
    value {
      type: DT_FLOAT
    }
  }
}
node {
  name: "loss/dense_2_loss/Sum_1/reduction_indices"
  op: "Const"
  attr {
    key: "dtype"
    value {
      type: DT_INT32
    }
  }
  attr {
    key: "value"
    value {
      tensor {
        dtype: DT_INT32
        tensor_shape {
        }
        int_val: 1
      }
    }
  }
}
node {
  name: "loss/dense_2_loss/Sum_1"
  op: "Sum"
  input: "loss/dense_2_loss/mul"
  input: "loss/dense_2_loss/Sum_1/reduction_indices"
  attr {
    key: "T"
    value {
      type: DT_FLOAT
    }
  }
  attr {
    key: "Tidx"
    value {
      type: DT_INT32
    }
  }
  attr {
    key: "keep_dims"
    value {
      b: false
    }
  }
}
node {
  name: "loss/dense_2_loss/Neg"
  op: "Neg"
  input: "loss/dense_2_loss/Sum_1"
  attr {
    key: "T"
    value {
      type: DT_FLOAT
    }
  }
}
node {
  name: "loss/dense_2_loss/Mean/reduction_indices"
  op: "Const"
  attr {
    key: "dtype"
    value {
      type: DT_INT32
    }
  }
  attr {
    key: "value"
    value {
      tensor {
        dtype: DT_INT32
        tensor_shape {
          dim {
          }
        }
      }
    }
  }
}
node {
  name: "loss/dense_2_loss/Mean"
  op: "Mean"
  input: "loss/dense_2_loss/Neg"
  input: "loss/dense_2_loss/Mean/reduction_indices"
  attr {
    key: "T"
    value {
      type: DT_FLOAT
    }
  }
  attr {
    key: "Tidx"
    value {
      type: DT_INT32
    }
  }
  attr {
    key: "keep_dims"
    value {
      b: false
    }
  }
}
node {
  name: "loss/dense_2_loss/mul_1"
  op: "Mul"
  input: "loss/dense_2_loss/Mean"
  input: "dense_2_sample_weights"
  attr {
    key: "T"
    value {
      type: DT_FLOAT
    }
  }
}
node {
  name: "loss/dense_2_loss/NotEqual/y"
  op: "Const"
  attr {
    key: "dtype"
    value {
      type: DT_FLOAT
    }
  }
  attr {
    key: "value"
    value {
      tensor {
        dtype: DT_FLOAT
        tensor_shape {
        }
        float_val: 0.0
      }
    }
  }
}
node {
  name: "loss/dense_2_loss/NotEqual"
  op: "NotEqual"
  input: "dense_2_sample_weights"
  input: "loss/dense_2_loss/NotEqual/y"
  attr {
    key: "T"
    value {
      type: DT_FLOAT
    }
  }
}
node {
  name: "loss/dense_2_loss/Cast"
  op: "Cast"
  input: "loss/dense_2_loss/NotEqual"
  attr {
    key: "DstT"
    value {
      type: DT_FLOAT
    }
  }
  attr {
    key: "SrcT"
    value {
      type: DT_BOOL
    }
  }
}
node {
  name: "loss/dense_2_loss/Const_1"
  op: "Const"
  attr {
    key: "dtype"
    value {
      type: DT_INT32
    }
  }
  attr {
    key: "value"
    value {
      tensor {
        dtype: DT_INT32
        tensor_shape {
          dim {
            size: 1
          }
        }
        int_val: 0
      }
    }
  }
}
node {
  name: "loss/dense_2_loss/Mean_1"
  op: "Mean"
  input: "loss/dense_2_loss/Cast"
  input: "loss/dense_2_loss/Const_1"
  attr {
    key: "T"
    value {
      type: DT_FLOAT
    }
  }
  attr {
    key: "Tidx"
    value {
      type: DT_INT32
    }
  }
  attr {
    key: "keep_dims"
    value {
      b: false
    }
  }
}
node {
  name: "loss/dense_2_loss/truediv_1"
  op: "RealDiv"
  input: "loss/dense_2_loss/mul_1"
  input: "loss/dense_2_loss/Mean_1"
  attr {
    key: "T"
    value {
      type: DT_FLOAT
    }
  }
}
node {
  name: "loss/dense_2_loss/Const_2"
  op: "Const"
  attr {
    key: "dtype"
    value {
      type: DT_INT32
    }
  }
  attr {
    key: "value"
    value {
      tensor {
        dtype: DT_INT32
        tensor_shape {
          dim {
            size: 1
          }
        }
        int_val: 0
      }
    }
  }
}
node {
  name: "loss/dense_2_loss/Mean_2"
  op: "Mean"
  input: "loss/dense_2_loss/truediv_1"
  input: "loss/dense_2_loss/Const_2"
  attr {
    key: "T"
    value {
      type: DT_FLOAT
    }
  }
  attr {
    key: "Tidx"
    value {
      type: DT_INT32
    }
  }
  attr {
    key: "keep_dims"
    value {
      b: false
    }
  }
}
node {
  name: "loss/mul/x"
  op: "Const"
  attr {
    key: "dtype"
    value {
      type: DT_FLOAT
    }
  }
  attr {
    key: "value"
    value {
      tensor {
        dtype: DT_FLOAT
        tensor_shape {
        }
        float_val: 1.0
      }
    }
  }
}
node {
  name: "loss/mul"
  op: "Mul"
  input: "loss/mul/x"
  input: "loss/dense_2_loss/Mean_2"
  attr {
    key: "T"
    value {
      type: DT_FLOAT
    }
  }
}
node {
  name: "metrics/acc/ArgMax/dimension"
  op: "Const"
  attr {
    key: "dtype"
    value {
      type: DT_INT32
    }
  }
  attr {
    key: "value"
    value {
      tensor {
        dtype: DT_INT32
        tensor_shape {
        }
        int_val: -1
      }
    }
  }
}
node {
  name: "metrics/acc/ArgMax"
  op: "ArgMax"
  input: "dense_2_target"
  input: "metrics/acc/ArgMax/dimension"
  attr {
    key: "T"
    value {
      type: DT_FLOAT
    }
  }
  attr {
    key: "Tidx"
    value {
      type: DT_INT32
    }
  }
  attr {
    key: "output_type"
    value {
      type: DT_INT64
    }
  }
}
node {
  name: "metrics/acc/ArgMax_1/dimension"
  op: "Const"
  attr {
    key: "dtype"
    value {
      type: DT_INT32
    }
  }
  attr {
    key: "value"
    value {
      tensor {
        dtype: DT_INT32
        tensor_shape {
        }
        int_val: -1
      }
    }
  }
}
node {
  name: "metrics/acc/ArgMax_1"
  op: "ArgMax"
  input: "dense_2/Softmax"
  input: "metrics/acc/ArgMax_1/dimension"
  attr {
    key: "T"
    value {
      type: DT_FLOAT
    }
  }
  attr {
    key: "Tidx"
    value {
      type: DT_INT32
    }
  }
  attr {
    key: "output_type"
    value {
      type: DT_INT64
    }
  }
}
node {
  name: "metrics/acc/Equal"
  op: "Equal"
  input: "metrics/acc/ArgMax"
  input: "metrics/acc/ArgMax_1"
  attr {
    key: "T"
    value {
      type: DT_INT64
    }
  }
}
node {
  name: "metrics/acc/Cast"
  op: "Cast"
  input: "metrics/acc/Equal"
  attr {
    key: "DstT"
    value {
      type: DT_FLOAT
    }
  }
  attr {
    key: "SrcT"
    value {
      type: DT_BOOL
    }
  }
}
node {
  name: "metrics/acc/Const"
  op: "Const"
  attr {
    key: "dtype"
    value {
      type: DT_INT32
    }
  }
  attr {
    key: "value"
    value {
      tensor {
        dtype: DT_INT32
        tensor_shape {
          dim {
            size: 1
          }
        }
        int_val: 0
      }
    }
  }
}
node {
  name: "metrics/acc/Mean"
  op: "Mean"
  input: "metrics/acc/Cast"
  input: "metrics/acc/Const"
  attr {
    key: "T"
    value {
      type: DT_FLOAT
    }
  }
  attr {
    key: "Tidx"
    value {
      type: DT_INT32
    }
  }
  attr {
    key: "keep_dims"
    value {
      b: false
    }
  }
}
node {
  name: "training/Adam/gradients/Shape"
  op: "Const"
  attr {
    key: "_class"
    value {
      list {
        s: "loc:@loss/mul"
      }
    }
  }
  attr {
    key: "dtype"
    value {
      type: DT_INT32
    }
  }
  attr {
    key: "value"
    value {
      tensor {
        dtype: DT_INT32
        tensor_shape {
          dim {
          }
        }
      }
    }
  }
}
node {
  name: "training/Adam/gradients/Const"
  op: "Const"
  attr {
    key: "_class"
    value {
      list {
        s: "loc:@loss/mul"
      }
    }
  }
  attr {
    key: "dtype"
    value {
      type: DT_FLOAT
    }
  }
  attr {
    key: "value"
    value {
      tensor {
        dtype: DT_FLOAT
        tensor_shape {
        }
        float_val: 1.0
      }
    }
  }
}
node {
  name: "training/Adam/gradients/Fill"
  op: "Fill"
  input: "training/Adam/gradients/Shape"
  input: "training/Adam/gradients/Const"
  attr {
    key: "T"
    value {
      type: DT_FLOAT
    }
  }
  attr {
    key: "_class"
    value {
      list {
        s: "loc:@loss/mul"
      }
    }
  }
}
node {
  name: "training/Adam/gradients/loss/mul_grad/Shape"
  op: "Const"
  attr {
    key: "_class"
    value {
      list {
        s: "loc:@loss/mul"
      }
    }
  }
  attr {
    key: "dtype"
    value {
      type: DT_INT32
    }
  }
  attr {
    key: "value"
    value {
      tensor {
        dtype: DT_INT32
        tensor_shape {
          dim {
          }
        }
      }
    }
  }
}
node {
  name: "training/Adam/gradients/loss/mul_grad/Shape_1"
  op: "Const"
  attr {
    key: "_class"
    value {
      list {
        s: "loc:@loss/mul"
      }
    }
  }
  attr {
    key: "dtype"
    value {
      type: DT_INT32
    }
  }
  attr {
    key: "value"
    value {
      tensor {
        dtype: DT_INT32
        tensor_shape {
          dim {
          }
        }
      }
    }
  }
}
node {
  name: "training/Adam/gradients/loss/mul_grad/BroadcastGradientArgs"
  op: "BroadcastGradientArgs"
  input: "training/Adam/gradients/loss/mul_grad/Shape"
  input: "training/Adam/gradients/loss/mul_grad/Shape_1"
  attr {
    key: "T"
    value {
      type: DT_INT32
    }
  }
  attr {
    key: "_class"
    value {
      list {
        s: "loc:@loss/mul"
      }
    }
  }
}
node {
  name: "training/Adam/gradients/loss/mul_grad/mul"
  op: "Mul"
  input: "training/Adam/gradients/Fill"
  input: "loss/dense_2_loss/Mean_2"
  attr {
    key: "T"
    value {
      type: DT_FLOAT
    }
  }
  attr {
    key: "_class"
    value {
      list {
        s: "loc:@loss/mul"
      }
    }
  }
}
node {
  name: "training/Adam/gradients/loss/mul_grad/Sum"
  op: "Sum"
  input: "training/Adam/gradients/loss/mul_grad/mul"
  input: "training/Adam/gradients/loss/mul_grad/BroadcastGradientArgs"
  attr {
    key: "T"
    value {
      type: DT_FLOAT
    }
  }
  attr {
    key: "Tidx"
    value {
      type: DT_INT32
    }
  }
  attr {
    key: "_class"
    value {
      list {
        s: "loc:@loss/mul"
      }
    }
  }
  attr {
    key: "keep_dims"
    value {
      b: false
    }
  }
}
node {
  name: "training/Adam/gradients/loss/mul_grad/Reshape"
  op: "Reshape"
  input: "training/Adam/gradients/loss/mul_grad/Sum"
  input: "training/Adam/gradients/loss/mul_grad/Shape"
  attr {
    key: "T"
    value {
      type: DT_FLOAT
    }
  }
  attr {
    key: "Tshape"
    value {
      type: DT_INT32
    }
  }
  attr {
    key: "_class"
    value {
      list {
        s: "loc:@loss/mul"
      }
    }
  }
}
node {
  name: "training/Adam/gradients/loss/mul_grad/mul_1"
  op: "Mul"
  input: "loss/mul/x"
  input: "training/Adam/gradients/Fill"
  attr {
    key: "T"
    value {
      type: DT_FLOAT
    }
  }
  attr {
    key: "_class"
    value {
      list {
        s: "loc:@loss/mul"
      }
    }
  }
}
node {
  name: "training/Adam/gradients/loss/mul_grad/Sum_1"
  op: "Sum"
  input: "training/Adam/gradients/loss/mul_grad/mul_1"
  input: "training/Adam/gradients/loss/mul_grad/BroadcastGradientArgs:1"
  attr {
    key: "T"
    value {
      type: DT_FLOAT
    }
  }
  attr {
    key: "Tidx"
    value {
      type: DT_INT32
    }
  }
  attr {
    key: "_class"
    value {
      list {
        s: "loc:@loss/mul"
      }
    }
  }
  attr {
    key: "keep_dims"
    value {
      b: false
    }
  }
}
node {
  name: "training/Adam/gradients/loss/mul_grad/Reshape_1"
  op: "Reshape"
  input: "training/Adam/gradients/loss/mul_grad/Sum_1"
  input: "training/Adam/gradients/loss/mul_grad/Shape_1"
  attr {
    key: "T"
    value {
      type: DT_FLOAT
    }
  }
  attr {
    key: "Tshape"
    value {
      type: DT_INT32
    }
  }
  attr {
    key: "_class"
    value {
      list {
        s: "loc:@loss/mul"
      }
    }
  }
}
node {
  name: "training/Adam/gradients/loss/dense_2_loss/Mean_2_grad/Reshape/shape"
  op: "Const"
  attr {
    key: "_class"
    value {
      list {
        s: "loc:@loss/dense_2_loss/Mean_2"
      }
    }
  }
  attr {
    key: "dtype"
    value {
      type: DT_INT32
    }
  }
  attr {
    key: "value"
    value {
      tensor {
        dtype: DT_INT32
        tensor_shape {
          dim {
            size: 1
          }
        }
        int_val: 1
      }
    }
  }
}
node {
  name: "training/Adam/gradients/loss/dense_2_loss/Mean_2_grad/Reshape"
  op: "Reshape"
  input: "training/Adam/gradients/loss/mul_grad/Reshape_1"
  input: "training/Adam/gradients/loss/dense_2_loss/Mean_2_grad/Reshape/shape"
  attr {
    key: "T"
    value {
      type: DT_FLOAT
    }
  }
  attr {
    key: "Tshape"
    value {
      type: DT_INT32
    }
  }
  attr {
    key: "_class"
    value {
      list {
        s: "loc:@loss/dense_2_loss/Mean_2"
      }
    }
  }
}
node {
  name: "training/Adam/gradients/loss/dense_2_loss/Mean_2_grad/Shape"
  op: "Shape"
  input: "loss/dense_2_loss/truediv_1"
  attr {
    key: "T"
    value {
      type: DT_FLOAT
    }
  }
  attr {
    key: "_class"
    value {
      list {
        s: "loc:@loss/dense_2_loss/Mean_2"
      }
    }
  }
  attr {
    key: "out_type"
    value {
      type: DT_INT32
    }
  }
}
node {
  name: "training/Adam/gradients/loss/dense_2_loss/Mean_2_grad/Tile"
  op: "Tile"
  input: "training/Adam/gradients/loss/dense_2_loss/Mean_2_grad/Reshape"
  input: "training/Adam/gradients/loss/dense_2_loss/Mean_2_grad/Shape"
  attr {
    key: "T"
    value {
      type: DT_FLOAT
    }
  }
  attr {
    key: "Tmultiples"
    value {
      type: DT_INT32
    }
  }
  attr {
    key: "_class"
    value {
      list {
        s: "loc:@loss/dense_2_loss/Mean_2"
      }
    }
  }
}
node {
  name: "training/Adam/gradients/loss/dense_2_loss/Mean_2_grad/Shape_1"
  op: "Shape"
  input: "loss/dense_2_loss/truediv_1"
  attr {
    key: "T"
    value {
      type: DT_FLOAT
    }
  }
  attr {
    key: "_class"
    value {
      list {
        s: "loc:@loss/dense_2_loss/Mean_2"
      }
    }
  }
  attr {
    key: "out_type"
    value {
      type: DT_INT32
    }
  }
}
node {
  name: "training/Adam/gradients/loss/dense_2_loss/Mean_2_grad/Shape_2"
  op: "Const"
  attr {
    key: "_class"
    value {
      list {
        s: "loc:@loss/dense_2_loss/Mean_2"
      }
    }
  }
  attr {
    key: "dtype"
    value {
      type: DT_INT32
    }
  }
  attr {
    key: "value"
    value {
      tensor {
        dtype: DT_INT32
        tensor_shape {
          dim {
          }
        }
      }
    }
  }
}
node {
  name: "training/Adam/gradients/loss/dense_2_loss/Mean_2_grad/Const"
  op: "Const"
  attr {
    key: "_class"
    value {
      list {
        s: "loc:@loss/dense_2_loss/Mean_2"
      }
    }
  }
  attr {
    key: "dtype"
    value {
      type: DT_INT32
    }
  }
  attr {
    key: "value"
    value {
      tensor {
        dtype: DT_INT32
        tensor_shape {
          dim {
            size: 1
          }
        }
        int_val: 0
      }
    }
  }
}
node {
  name: "training/Adam/gradients/loss/dense_2_loss/Mean_2_grad/Prod"
  op: "Prod"
  input: "training/Adam/gradients/loss/dense_2_loss/Mean_2_grad/Shape_1"
  input: "training/Adam/gradients/loss/dense_2_loss/Mean_2_grad/Const"
  attr {
    key: "T"
    value {
      type: DT_INT32
    }
  }
  attr {
    key: "Tidx"
    value {
      type: DT_INT32
    }
  }
  attr {
    key: "_class"
    value {
      list {
        s: "loc:@loss/dense_2_loss/Mean_2"
      }
    }
  }
  attr {
    key: "keep_dims"
    value {
      b: false
    }
  }
}
node {
  name: "training/Adam/gradients/loss/dense_2_loss/Mean_2_grad/Const_1"
  op: "Const"
  attr {
    key: "_class"
    value {
      list {
        s: "loc:@loss/dense_2_loss/Mean_2"
      }
    }
  }
  attr {
    key: "dtype"
    value {
      type: DT_INT32
    }
  }
  attr {
    key: "value"
    value {
      tensor {
        dtype: DT_INT32
        tensor_shape {
          dim {
            size: 1
          }
        }
        int_val: 0
      }
    }
  }
}
node {
  name: "training/Adam/gradients/loss/dense_2_loss/Mean_2_grad/Prod_1"
  op: "Prod"
  input: "training/Adam/gradients/loss/dense_2_loss/Mean_2_grad/Shape_2"
  input: "training/Adam/gradients/loss/dense_2_loss/Mean_2_grad/Const_1"
  attr {
    key: "T"
    value {
      type: DT_INT32
    }
  }
  attr {
    key: "Tidx"
    value {
      type: DT_INT32
    }
  }
  attr {
    key: "_class"
    value {
      list {
        s: "loc:@loss/dense_2_loss/Mean_2"
      }
    }
  }
  attr {
    key: "keep_dims"
    value {
      b: false
    }
  }
}
node {
  name: "training/Adam/gradients/loss/dense_2_loss/Mean_2_grad/Maximum/y"
  op: "Const"
  attr {
    key: "_class"
    value {
      list {
        s: "loc:@loss/dense_2_loss/Mean_2"
      }
    }
  }
  attr {
    key: "dtype"
    value {
      type: DT_INT32
    }
  }
  attr {
    key: "value"
    value {
      tensor {
        dtype: DT_INT32
        tensor_shape {
        }
        int_val: 1
      }
    }
  }
}
node {
  name: "training/Adam/gradients/loss/dense_2_loss/Mean_2_grad/Maximum"
  op: "Maximum"
  input: "training/Adam/gradients/loss/dense_2_loss/Mean_2_grad/Prod_1"
  input: "training/Adam/gradients/loss/dense_2_loss/Mean_2_grad/Maximum/y"
  attr {
    key: "T"
    value {
      type: DT_INT32
    }
  }
  attr {
    key: "_class"
    value {
      list {
        s: "loc:@loss/dense_2_loss/Mean_2"
      }
    }
  }
}
node {
  name: "training/Adam/gradients/loss/dense_2_loss/Mean_2_grad/floordiv"
  op: "FloorDiv"
  input: "training/Adam/gradients/loss/dense_2_loss/Mean_2_grad/Prod"
  input: "training/Adam/gradients/loss/dense_2_loss/Mean_2_grad/Maximum"
  attr {
    key: "T"
    value {
      type: DT_INT32
    }
  }
  attr {
    key: "_class"
    value {
      list {
        s: "loc:@loss/dense_2_loss/Mean_2"
      }
    }
  }
}
node {
  name: "training/Adam/gradients/loss/dense_2_loss/Mean_2_grad/Cast"
  op: "Cast"
  input: "training/Adam/gradients/loss/dense_2_loss/Mean_2_grad/floordiv"
  attr {
    key: "DstT"
    value {
      type: DT_FLOAT
    }
  }
  attr {
    key: "SrcT"
    value {
      type: DT_INT32
    }
  }
  attr {
    key: "_class"
    value {
      list {
        s: "loc:@loss/dense_2_loss/Mean_2"
      }
    }
  }
}
node {
  name: "training/Adam/gradients/loss/dense_2_loss/Mean_2_grad/truediv"
  op: "RealDiv"
  input: "training/Adam/gradients/loss/dense_2_loss/Mean_2_grad/Tile"
  input: "training/Adam/gradients/loss/dense_2_loss/Mean_2_grad/Cast"
  attr {
    key: "T"
    value {
      type: DT_FLOAT
    }
  }
  attr {
    key: "_class"
    value {
      list {
        s: "loc:@loss/dense_2_loss/Mean_2"
      }
    }
  }
}
node {
  name: "training/Adam/gradients/loss/dense_2_loss/truediv_1_grad/Shape"
  op: "Shape"
  input: "loss/dense_2_loss/mul_1"
  attr {
    key: "T"
    value {
      type: DT_FLOAT
    }
  }
  attr {
    key: "_class"
    value {
      list {
        s: "loc:@loss/dense_2_loss/truediv_1"
      }
    }
  }
  attr {
    key: "out_type"
    value {
      type: DT_INT32
    }
  }
}
node {
  name: "training/Adam/gradients/loss/dense_2_loss/truediv_1_grad/Shape_1"
  op: "Const"
  attr {
    key: "_class"
    value {
      list {
        s: "loc:@loss/dense_2_loss/truediv_1"
      }
    }
  }
  attr {
    key: "dtype"
    value {
      type: DT_INT32
    }
  }
  attr {
    key: "value"
    value {
      tensor {
        dtype: DT_INT32
        tensor_shape {
          dim {
          }
        }
      }
    }
  }
}
node {
  name: "training/Adam/gradients/loss/dense_2_loss/truediv_1_grad/BroadcastGradientArgs"
  op: "BroadcastGradientArgs"
  input: "training/Adam/gradients/loss/dense_2_loss/truediv_1_grad/Shape"
  input: "training/Adam/gradients/loss/dense_2_loss/truediv_1_grad/Shape_1"
  attr {
    key: "T"
    value {
      type: DT_INT32
    }
  }
  attr {
    key: "_class"
    value {
      list {
        s: "loc:@loss/dense_2_loss/truediv_1"
      }
    }
  }
}
node {
  name: "training/Adam/gradients/loss/dense_2_loss/truediv_1_grad/RealDiv"
  op: "RealDiv"
  input: "training/Adam/gradients/loss/dense_2_loss/Mean_2_grad/truediv"
  input: "loss/dense_2_loss/Mean_1"
  attr {
    key: "T"
    value {
      type: DT_FLOAT
    }
  }
  attr {
    key: "_class"
    value {
      list {
        s: "loc:@loss/dense_2_loss/truediv_1"
      }
    }
  }
}
node {
  name: "training/Adam/gradients/loss/dense_2_loss/truediv_1_grad/Sum"
  op: "Sum"
  input: "training/Adam/gradients/loss/dense_2_loss/truediv_1_grad/RealDiv"
  input: "training/Adam/gradients/loss/dense_2_loss/truediv_1_grad/BroadcastGradientArgs"
  attr {
    key: "T"
    value {
      type: DT_FLOAT
    }
  }
  attr {
    key: "Tidx"
    value {
      type: DT_INT32
    }
  }
  attr {
    key: "_class"
    value {
      list {
        s: "loc:@loss/dense_2_loss/truediv_1"
      }
    }
  }
  attr {
    key: "keep_dims"
    value {
      b: false
    }
  }
}
node {
  name: "training/Adam/gradients/loss/dense_2_loss/truediv_1_grad/Reshape"
  op: "Reshape"
  input: "training/Adam/gradients/loss/dense_2_loss/truediv_1_grad/Sum"
  input: "training/Adam/gradients/loss/dense_2_loss/truediv_1_grad/Shape"
  attr {
    key: "T"
    value {
      type: DT_FLOAT
    }
  }
  attr {
    key: "Tshape"
    value {
      type: DT_INT32
    }
  }
  attr {
    key: "_class"
    value {
      list {
        s: "loc:@loss/dense_2_loss/truediv_1"
      }
    }
  }
}
node {
  name: "training/Adam/gradients/loss/dense_2_loss/truediv_1_grad/Neg"
  op: "Neg"
  input: "loss/dense_2_loss/mul_1"
  attr {
    key: "T"
    value {
      type: DT_FLOAT
    }
  }
  attr {
    key: "_class"
    value {
      list {
        s: "loc:@loss/dense_2_loss/truediv_1"
      }
    }
  }
}
node {
  name: "training/Adam/gradients/loss/dense_2_loss/truediv_1_grad/RealDiv_1"
  op: "RealDiv"
  input: "training/Adam/gradients/loss/dense_2_loss/truediv_1_grad/Neg"
  input: "loss/dense_2_loss/Mean_1"
  attr {
    key: "T"
    value {
      type: DT_FLOAT
    }
  }
  attr {
    key: "_class"
    value {
      list {
        s: "loc:@loss/dense_2_loss/truediv_1"
      }
    }
  }
}
node {
  name: "training/Adam/gradients/loss/dense_2_loss/truediv_1_grad/RealDiv_2"
  op: "RealDiv"
  input: "training/Adam/gradients/loss/dense_2_loss/truediv_1_grad/RealDiv_1"
  input: "loss/dense_2_loss/Mean_1"
  attr {
    key: "T"
    value {
      type: DT_FLOAT
    }
  }
  attr {
    key: "_class"
    value {
      list {
        s: "loc:@loss/dense_2_loss/truediv_1"
      }
    }
  }
}
node {
  name: "training/Adam/gradients/loss/dense_2_loss/truediv_1_grad/mul"
  op: "Mul"
  input: "training/Adam/gradients/loss/dense_2_loss/Mean_2_grad/truediv"
  input: "training/Adam/gradients/loss/dense_2_loss/truediv_1_grad/RealDiv_2"
  attr {
    key: "T"
    value {
      type: DT_FLOAT
    }
  }
  attr {
    key: "_class"
    value {
      list {
        s: "loc:@loss/dense_2_loss/truediv_1"
      }
    }
  }
}
node {
  name: "training/Adam/gradients/loss/dense_2_loss/truediv_1_grad/Sum_1"
  op: "Sum"
  input: "training/Adam/gradients/loss/dense_2_loss/truediv_1_grad/mul"
  input: "training/Adam/gradients/loss/dense_2_loss/truediv_1_grad/BroadcastGradientArgs:1"
  attr {
    key: "T"
    value {
      type: DT_FLOAT
    }
  }
  attr {
    key: "Tidx"
    value {
      type: DT_INT32
    }
  }
  attr {
    key: "_class"
    value {
      list {
        s: "loc:@loss/dense_2_loss/truediv_1"
      }
    }
  }
  attr {
    key: "keep_dims"
    value {
      b: false
    }
  }
}
node {
  name: "training/Adam/gradients/loss/dense_2_loss/truediv_1_grad/Reshape_1"
  op: "Reshape"
  input: "training/Adam/gradients/loss/dense_2_loss/truediv_1_grad/Sum_1"
  input: "training/Adam/gradients/loss/dense_2_loss/truediv_1_grad/Shape_1"
  attr {
    key: "T"
    value {
      type: DT_FLOAT
    }
  }
  attr {
    key: "Tshape"
    value {
      type: DT_INT32
    }
  }
  attr {
    key: "_class"
    value {
      list {
        s: "loc:@loss/dense_2_loss/truediv_1"
      }
    }
  }
}
node {
  name: "training/Adam/gradients/loss/dense_2_loss/mul_1_grad/Shape"
  op: "Shape"
  input: "loss/dense_2_loss/Mean"
  attr {
    key: "T"
    value {
      type: DT_FLOAT
    }
  }
  attr {
    key: "_class"
    value {
      list {
        s: "loc:@loss/dense_2_loss/mul_1"
      }
    }
  }
  attr {
    key: "out_type"
    value {
      type: DT_INT32
    }
  }
}
node {
  name: "training/Adam/gradients/loss/dense_2_loss/mul_1_grad/Shape_1"
  op: "Shape"
  input: "dense_2_sample_weights"
  attr {
    key: "T"
    value {
      type: DT_FLOAT
    }
  }
  attr {
    key: "_class"
    value {
      list {
        s: "loc:@loss/dense_2_loss/mul_1"
      }
    }
  }
  attr {
    key: "out_type"
    value {
      type: DT_INT32
    }
  }
}
node {
  name: "training/Adam/gradients/loss/dense_2_loss/mul_1_grad/BroadcastGradientArgs"
  op: "BroadcastGradientArgs"
  input: "training/Adam/gradients/loss/dense_2_loss/mul_1_grad/Shape"
  input: "training/Adam/gradients/loss/dense_2_loss/mul_1_grad/Shape_1"
  attr {
    key: "T"
    value {
      type: DT_INT32
    }
  }
  attr {
    key: "_class"
    value {
      list {
        s: "loc:@loss/dense_2_loss/mul_1"
      }
    }
  }
}
node {
  name: "training/Adam/gradients/loss/dense_2_loss/mul_1_grad/mul"
  op: "Mul"
  input: "training/Adam/gradients/loss/dense_2_loss/truediv_1_grad/Reshape"
  input: "dense_2_sample_weights"
  attr {
    key: "T"
    value {
      type: DT_FLOAT
    }
  }
  attr {
    key: "_class"
    value {
      list {
        s: "loc:@loss/dense_2_loss/mul_1"
      }
    }
  }
}
node {
  name: "training/Adam/gradients/loss/dense_2_loss/mul_1_grad/Sum"
  op: "Sum"
  input: "training/Adam/gradients/loss/dense_2_loss/mul_1_grad/mul"
  input: "training/Adam/gradients/loss/dense_2_loss/mul_1_grad/BroadcastGradientArgs"
  attr {
    key: "T"
    value {
      type: DT_FLOAT
    }
  }
  attr {
    key: "Tidx"
    value {
      type: DT_INT32
    }
  }
  attr {
    key: "_class"
    value {
      list {
        s: "loc:@loss/dense_2_loss/mul_1"
      }
    }
  }
  attr {
    key: "keep_dims"
    value {
      b: false
    }
  }
}
node {
  name: "training/Adam/gradients/loss/dense_2_loss/mul_1_grad/Reshape"
  op: "Reshape"
  input: "training/Adam/gradients/loss/dense_2_loss/mul_1_grad/Sum"
  input: "training/Adam/gradients/loss/dense_2_loss/mul_1_grad/Shape"
  attr {
    key: "T"
    value {
      type: DT_FLOAT
    }
  }
  attr {
    key: "Tshape"
    value {
      type: DT_INT32
    }
  }
  attr {
    key: "_class"
    value {
      list {
        s: "loc:@loss/dense_2_loss/mul_1"
      }
    }
  }
}
node {
  name: "training/Adam/gradients/loss/dense_2_loss/mul_1_grad/mul_1"
  op: "Mul"
  input: "loss/dense_2_loss/Mean"
  input: "training/Adam/gradients/loss/dense_2_loss/truediv_1_grad/Reshape"
  attr {
    key: "T"
    value {
      type: DT_FLOAT
    }
  }
  attr {
    key: "_class"
    value {
      list {
        s: "loc:@loss/dense_2_loss/mul_1"
      }
    }
  }
}
node {
  name: "training/Adam/gradients/loss/dense_2_loss/mul_1_grad/Sum_1"
  op: "Sum"
  input: "training/Adam/gradients/loss/dense_2_loss/mul_1_grad/mul_1"
  input: "training/Adam/gradients/loss/dense_2_loss/mul_1_grad/BroadcastGradientArgs:1"
  attr {
    key: "T"
    value {
      type: DT_FLOAT
    }
  }
  attr {
    key: "Tidx"
    value {
      type: DT_INT32
    }
  }
  attr {
    key: "_class"
    value {
      list {
        s: "loc:@loss/dense_2_loss/mul_1"
      }
    }
  }
  attr {
    key: "keep_dims"
    value {
      b: false
    }
  }
}
node {
  name: "training/Adam/gradients/loss/dense_2_loss/mul_1_grad/Reshape_1"
  op: "Reshape"
  input: "training/Adam/gradients/loss/dense_2_loss/mul_1_grad/Sum_1"
  input: "training/Adam/gradients/loss/dense_2_loss/mul_1_grad/Shape_1"
  attr {
    key: "T"
    value {
      type: DT_FLOAT
    }
  }
  attr {
    key: "Tshape"
    value {
      type: DT_INT32
    }
  }
  attr {
    key: "_class"
    value {
      list {
        s: "loc:@loss/dense_2_loss/mul_1"
      }
    }
  }
}
node {
  name: "training/Adam/gradients/loss/dense_2_loss/Mean_grad/Shape"
  op: "Shape"
  input: "loss/dense_2_loss/Neg"
  attr {
    key: "T"
    value {
      type: DT_FLOAT
    }
  }
  attr {
    key: "_class"
    value {
      list {
        s: "loc:@loss/dense_2_loss/Mean"
      }
    }
  }
  attr {
    key: "out_type"
    value {
      type: DT_INT32
    }
  }
}
node {
  name: "training/Adam/gradients/loss/dense_2_loss/Mean_grad/Size"
  op: "Const"
  attr {
    key: "_class"
    value {
      list {
        s: "loc:@loss/dense_2_loss/Mean"
      }
    }
  }
  attr {
    key: "dtype"
    value {
      type: DT_INT32
    }
  }
  attr {
    key: "value"
    value {
      tensor {
        dtype: DT_INT32
        tensor_shape {
        }
        int_val: 1
      }
    }
  }
}
node {
  name: "training/Adam/gradients/loss/dense_2_loss/Mean_grad/add"
  op: "Add"
  input: "loss/dense_2_loss/Mean/reduction_indices"
  input: "training/Adam/gradients/loss/dense_2_loss/Mean_grad/Size"
  attr {
    key: "T"
    value {
      type: DT_INT32
    }
  }
  attr {
    key: "_class"
    value {
      list {
        s: "loc:@loss/dense_2_loss/Mean"
      }
    }
  }
}
node {
  name: "training/Adam/gradients/loss/dense_2_loss/Mean_grad/mod"
  op: "FloorMod"
  input: "training/Adam/gradients/loss/dense_2_loss/Mean_grad/add"
  input: "training/Adam/gradients/loss/dense_2_loss/Mean_grad/Size"
  attr {
    key: "T"
    value {
      type: DT_INT32
    }
  }
  attr {
    key: "_class"
    value {
      list {
        s: "loc:@loss/dense_2_loss/Mean"
      }
    }
  }
}
node {
  name: "training/Adam/gradients/loss/dense_2_loss/Mean_grad/Shape_1"
  op: "Const"
  attr {
    key: "_class"
    value {
      list {
        s: "loc:@loss/dense_2_loss/Mean"
      }
    }
  }
  attr {
    key: "dtype"
    value {
      type: DT_INT32
    }
  }
  attr {
    key: "value"
    value {
      tensor {
        dtype: DT_INT32
        tensor_shape {
          dim {
            size: 1
          }
        }
        int_val: 0
      }
    }
  }
}
node {
  name: "training/Adam/gradients/loss/dense_2_loss/Mean_grad/range/start"
  op: "Const"
  attr {
    key: "_class"
    value {
      list {
        s: "loc:@loss/dense_2_loss/Mean"
      }
    }
  }
  attr {
    key: "dtype"
    value {
      type: DT_INT32
    }
  }
  attr {
    key: "value"
    value {
      tensor {
        dtype: DT_INT32
        tensor_shape {
        }
        int_val: 0
      }
    }
  }
}
node {
  name: "training/Adam/gradients/loss/dense_2_loss/Mean_grad/range/delta"
  op: "Const"
  attr {
    key: "_class"
    value {
      list {
        s: "loc:@loss/dense_2_loss/Mean"
      }
    }
  }
  attr {
    key: "dtype"
    value {
      type: DT_INT32
    }
  }
  attr {
    key: "value"
    value {
      tensor {
        dtype: DT_INT32
        tensor_shape {
        }
        int_val: 1
      }
    }
  }
}
node {
  name: "training/Adam/gradients/loss/dense_2_loss/Mean_grad/range"
  op: "Range"
  input: "training/Adam/gradients/loss/dense_2_loss/Mean_grad/range/start"
  input: "training/Adam/gradients/loss/dense_2_loss/Mean_grad/Size"
  input: "training/Adam/gradients/loss/dense_2_loss/Mean_grad/range/delta"
  attr {
    key: "Tidx"
    value {
      type: DT_INT32
    }
  }
  attr {
    key: "_class"
    value {
      list {
        s: "loc:@loss/dense_2_loss/Mean"
      }
    }
  }
}
node {
  name: "training/Adam/gradients/loss/dense_2_loss/Mean_grad/Fill/value"
  op: "Const"
  attr {
    key: "_class"
    value {
      list {
        s: "loc:@loss/dense_2_loss/Mean"
      }
    }
  }
  attr {
    key: "dtype"
    value {
      type: DT_INT32
    }
  }
  attr {
    key: "value"
    value {
      tensor {
        dtype: DT_INT32
        tensor_shape {
        }
        int_val: 1
      }
    }
  }
}
node {
  name: "training/Adam/gradients/loss/dense_2_loss/Mean_grad/Fill"
  op: "Fill"
  input: "training/Adam/gradients/loss/dense_2_loss/Mean_grad/Shape_1"
  input: "training/Adam/gradients/loss/dense_2_loss/Mean_grad/Fill/value"
  attr {
    key: "T"
    value {
      type: DT_INT32
    }
  }
  attr {
    key: "_class"
    value {
      list {
        s: "loc:@loss/dense_2_loss/Mean"
      }
    }
  }
}
node {
  name: "training/Adam/gradients/loss/dense_2_loss/Mean_grad/DynamicStitch"
  op: "DynamicStitch"
  input: "training/Adam/gradients/loss/dense_2_loss/Mean_grad/range"
  input: "training/Adam/gradients/loss/dense_2_loss/Mean_grad/mod"
  input: "training/Adam/gradients/loss/dense_2_loss/Mean_grad/Shape"
  input: "training/Adam/gradients/loss/dense_2_loss/Mean_grad/Fill"
  attr {
    key: "N"
    value {
      i: 2
    }
  }
  attr {
    key: "T"
    value {
      type: DT_INT32
    }
  }
  attr {
    key: "_class"
    value {
      list {
        s: "loc:@loss/dense_2_loss/Mean"
      }
    }
  }
}
node {
  name: "training/Adam/gradients/loss/dense_2_loss/Mean_grad/Maximum/y"
  op: "Const"
  attr {
    key: "_class"
    value {
      list {
        s: "loc:@loss/dense_2_loss/Mean"
      }
    }
  }
  attr {
    key: "dtype"
    value {
      type: DT_INT32
    }
  }
  attr {
    key: "value"
    value {
      tensor {
        dtype: DT_INT32
        tensor_shape {
        }
        int_val: 1
      }
    }
  }
}
node {
  name: "training/Adam/gradients/loss/dense_2_loss/Mean_grad/Maximum"
  op: "Maximum"
  input: "training/Adam/gradients/loss/dense_2_loss/Mean_grad/DynamicStitch"
  input: "training/Adam/gradients/loss/dense_2_loss/Mean_grad/Maximum/y"
  attr {
    key: "T"
    value {
      type: DT_INT32
    }
  }
  attr {
    key: "_class"
    value {
      list {
        s: "loc:@loss/dense_2_loss/Mean"
      }
    }
  }
}
node {
  name: "training/Adam/gradients/loss/dense_2_loss/Mean_grad/floordiv"
  op: "FloorDiv"
  input: "training/Adam/gradients/loss/dense_2_loss/Mean_grad/Shape"
  input: "training/Adam/gradients/loss/dense_2_loss/Mean_grad/Maximum"
  attr {
    key: "T"
    value {
      type: DT_INT32
    }
  }
  attr {
    key: "_class"
    value {
      list {
        s: "loc:@loss/dense_2_loss/Mean"
      }
    }
  }
}
node {
  name: "training/Adam/gradients/loss/dense_2_loss/Mean_grad/Reshape"
  op: "Reshape"
  input: "training/Adam/gradients/loss/dense_2_loss/mul_1_grad/Reshape"
  input: "training/Adam/gradients/loss/dense_2_loss/Mean_grad/DynamicStitch"
  attr {
    key: "T"
    value {
      type: DT_FLOAT
    }
  }
  attr {
    key: "Tshape"
    value {
      type: DT_INT32
    }
  }
  attr {
    key: "_class"
    value {
      list {
        s: "loc:@loss/dense_2_loss/Mean"
      }
    }
  }
}
node {
  name: "training/Adam/gradients/loss/dense_2_loss/Mean_grad/Tile"
  op: "Tile"
  input: "training/Adam/gradients/loss/dense_2_loss/Mean_grad/Reshape"
  input: "training/Adam/gradients/loss/dense_2_loss/Mean_grad/floordiv"
  attr {
    key: "T"
    value {
      type: DT_FLOAT
    }
  }
  attr {
    key: "Tmultiples"
    value {
      type: DT_INT32
    }
  }
  attr {
    key: "_class"
    value {
      list {
        s: "loc:@loss/dense_2_loss/Mean"
      }
    }
  }
}
node {
  name: "training/Adam/gradients/loss/dense_2_loss/Mean_grad/Shape_2"
  op: "Shape"
  input: "loss/dense_2_loss/Neg"
  attr {
    key: "T"
    value {
      type: DT_FLOAT
    }
  }
  attr {
    key: "_class"
    value {
      list {
        s: "loc:@loss/dense_2_loss/Mean"
      }
    }
  }
  attr {
    key: "out_type"
    value {
      type: DT_INT32
    }
  }
}
node {
  name: "training/Adam/gradients/loss/dense_2_loss/Mean_grad/Shape_3"
  op: "Shape"
  input: "loss/dense_2_loss/Mean"
  attr {
    key: "T"
    value {
      type: DT_FLOAT
    }
  }
  attr {
    key: "_class"
    value {
      list {
        s: "loc:@loss/dense_2_loss/Mean"
      }
    }
  }
  attr {
    key: "out_type"
    value {
      type: DT_INT32
    }
  }
}
node {
  name: "training/Adam/gradients/loss/dense_2_loss/Mean_grad/Const"
  op: "Const"
  attr {
    key: "_class"
    value {
      list {
        s: "loc:@loss/dense_2_loss/Mean"
      }
    }
  }
  attr {
    key: "dtype"
    value {
      type: DT_INT32
    }
  }
  attr {
    key: "value"
    value {
      tensor {
        dtype: DT_INT32
        tensor_shape {
          dim {
            size: 1
          }
        }
        int_val: 0
      }
    }
  }
}
node {
  name: "training/Adam/gradients/loss/dense_2_loss/Mean_grad/Prod"
  op: "Prod"
  input: "training/Adam/gradients/loss/dense_2_loss/Mean_grad/Shape_2"
  input: "training/Adam/gradients/loss/dense_2_loss/Mean_grad/Const"
  attr {
    key: "T"
    value {
      type: DT_INT32
    }
  }
  attr {
    key: "Tidx"
    value {
      type: DT_INT32
    }
  }
  attr {
    key: "_class"
    value {
      list {
        s: "loc:@loss/dense_2_loss/Mean"
      }
    }
  }
  attr {
    key: "keep_dims"
    value {
      b: false
    }
  }
}
node {
  name: "training/Adam/gradients/loss/dense_2_loss/Mean_grad/Const_1"
  op: "Const"
  attr {
    key: "_class"
    value {
      list {
        s: "loc:@loss/dense_2_loss/Mean"
      }
    }
  }
  attr {
    key: "dtype"
    value {
      type: DT_INT32
    }
  }
  attr {
    key: "value"
    value {
      tensor {
        dtype: DT_INT32
        tensor_shape {
          dim {
            size: 1
          }
        }
        int_val: 0
      }
    }
  }
}
node {
  name: "training/Adam/gradients/loss/dense_2_loss/Mean_grad/Prod_1"
  op: "Prod"
  input: "training/Adam/gradients/loss/dense_2_loss/Mean_grad/Shape_3"
  input: "training/Adam/gradients/loss/dense_2_loss/Mean_grad/Const_1"
  attr {
    key: "T"
    value {
      type: DT_INT32
    }
  }
  attr {
    key: "Tidx"
    value {
      type: DT_INT32
    }
  }
  attr {
    key: "_class"
    value {
      list {
        s: "loc:@loss/dense_2_loss/Mean"
      }
    }
  }
  attr {
    key: "keep_dims"
    value {
      b: false
    }
  }
}
node {
  name: "training/Adam/gradients/loss/dense_2_loss/Mean_grad/Maximum_1/y"
  op: "Const"
  attr {
    key: "_class"
    value {
      list {
        s: "loc:@loss/dense_2_loss/Mean"
      }
    }
  }
  attr {
    key: "dtype"
    value {
      type: DT_INT32
    }
  }
  attr {
    key: "value"
    value {
      tensor {
        dtype: DT_INT32
        tensor_shape {
        }
        int_val: 1
      }
    }
  }
}
node {
  name: "training/Adam/gradients/loss/dense_2_loss/Mean_grad/Maximum_1"
  op: "Maximum"
  input: "training/Adam/gradients/loss/dense_2_loss/Mean_grad/Prod_1"
  input: "training/Adam/gradients/loss/dense_2_loss/Mean_grad/Maximum_1/y"
  attr {
    key: "T"
    value {
      type: DT_INT32
    }
  }
  attr {
    key: "_class"
    value {
      list {
        s: "loc:@loss/dense_2_loss/Mean"
      }
    }
  }
}
node {
  name: "training/Adam/gradients/loss/dense_2_loss/Mean_grad/floordiv_1"
  op: "FloorDiv"
  input: "training/Adam/gradients/loss/dense_2_loss/Mean_grad/Prod"
  input: "training/Adam/gradients/loss/dense_2_loss/Mean_grad/Maximum_1"
  attr {
    key: "T"
    value {
      type: DT_INT32
    }
  }
  attr {
    key: "_class"
    value {
      list {
        s: "loc:@loss/dense_2_loss/Mean"
      }
    }
  }
}
node {
  name: "training/Adam/gradients/loss/dense_2_loss/Mean_grad/Cast"
  op: "Cast"
  input: "training/Adam/gradients/loss/dense_2_loss/Mean_grad/floordiv_1"
  attr {
    key: "DstT"
    value {
      type: DT_FLOAT
    }
  }
  attr {
    key: "SrcT"
    value {
      type: DT_INT32
    }
  }
  attr {
    key: "_class"
    value {
      list {
        s: "loc:@loss/dense_2_loss/Mean"
      }
    }
  }
}
node {
  name: "training/Adam/gradients/loss/dense_2_loss/Mean_grad/truediv"
  op: "RealDiv"
  input: "training/Adam/gradients/loss/dense_2_loss/Mean_grad/Tile"
  input: "training/Adam/gradients/loss/dense_2_loss/Mean_grad/Cast"
  attr {
    key: "T"
    value {
      type: DT_FLOAT
    }
  }
  attr {
    key: "_class"
    value {
      list {
        s: "loc:@loss/dense_2_loss/Mean"
      }
    }
  }
}
node {
  name: "training/Adam/gradients/loss/dense_2_loss/Neg_grad/Neg"
  op: "Neg"
  input: "training/Adam/gradients/loss/dense_2_loss/Mean_grad/truediv"
  attr {
    key: "T"
    value {
      type: DT_FLOAT
    }
  }
  attr {
    key: "_class"
    value {
      list {
        s: "loc:@loss/dense_2_loss/Neg"
      }
    }
  }
}
node {
  name: "training/Adam/gradients/loss/dense_2_loss/Sum_1_grad/Shape"
  op: "Shape"
  input: "loss/dense_2_loss/mul"
  attr {
    key: "T"
    value {
      type: DT_FLOAT
    }
  }
  attr {
    key: "_class"
    value {
      list {
        s: "loc:@loss/dense_2_loss/Sum_1"
      }
    }
  }
  attr {
    key: "out_type"
    value {
      type: DT_INT32
    }
  }
}
node {
  name: "training/Adam/gradients/loss/dense_2_loss/Sum_1_grad/Size"
  op: "Const"
  attr {
    key: "_class"
    value {
      list {
        s: "loc:@loss/dense_2_loss/Sum_1"
      }
    }
  }
  attr {
    key: "dtype"
    value {
      type: DT_INT32
    }
  }
  attr {
    key: "value"
    value {
      tensor {
        dtype: DT_INT32
        tensor_shape {
        }
        int_val: 2
      }
    }
  }
}
node {
  name: "training/Adam/gradients/loss/dense_2_loss/Sum_1_grad/add"
  op: "Add"
  input: "loss/dense_2_loss/Sum_1/reduction_indices"
  input: "training/Adam/gradients/loss/dense_2_loss/Sum_1_grad/Size"
  attr {
    key: "T"
    value {
      type: DT_INT32
    }
  }
  attr {
    key: "_class"
    value {
      list {
        s: "loc:@loss/dense_2_loss/Sum_1"
      }
    }
  }
}
node {
  name: "training/Adam/gradients/loss/dense_2_loss/Sum_1_grad/mod"
  op: "FloorMod"
  input: "training/Adam/gradients/loss/dense_2_loss/Sum_1_grad/add"
  input: "training/Adam/gradients/loss/dense_2_loss/Sum_1_grad/Size"
  attr {
    key: "T"
    value {
      type: DT_INT32
    }
  }
  attr {
    key: "_class"
    value {
      list {
        s: "loc:@loss/dense_2_loss/Sum_1"
      }
    }
  }
}
node {
  name: "training/Adam/gradients/loss/dense_2_loss/Sum_1_grad/Shape_1"
  op: "Const"
  attr {
    key: "_class"
    value {
      list {
        s: "loc:@loss/dense_2_loss/Sum_1"
      }
    }
  }
  attr {
    key: "dtype"
    value {
      type: DT_INT32
    }
  }
  attr {
    key: "value"
    value {
      tensor {
        dtype: DT_INT32
        tensor_shape {
          dim {
          }
        }
      }
    }
  }
}
node {
  name: "training/Adam/gradients/loss/dense_2_loss/Sum_1_grad/range/start"
  op: "Const"
  attr {
    key: "_class"
    value {
      list {
        s: "loc:@loss/dense_2_loss/Sum_1"
      }
    }
  }
  attr {
    key: "dtype"
    value {
      type: DT_INT32
    }
  }
  attr {
    key: "value"
    value {
      tensor {
        dtype: DT_INT32
        tensor_shape {
        }
        int_val: 0
      }
    }
  }
}
node {
  name: "training/Adam/gradients/loss/dense_2_loss/Sum_1_grad/range/delta"
  op: "Const"
  attr {
    key: "_class"
    value {
      list {
        s: "loc:@loss/dense_2_loss/Sum_1"
      }
    }
  }
  attr {
    key: "dtype"
    value {
      type: DT_INT32
    }
  }
  attr {
    key: "value"
    value {
      tensor {
        dtype: DT_INT32
        tensor_shape {
        }
        int_val: 1
      }
    }
  }
}
node {
  name: "training/Adam/gradients/loss/dense_2_loss/Sum_1_grad/range"
  op: "Range"
  input: "training/Adam/gradients/loss/dense_2_loss/Sum_1_grad/range/start"
  input: "training/Adam/gradients/loss/dense_2_loss/Sum_1_grad/Size"
  input: "training/Adam/gradients/loss/dense_2_loss/Sum_1_grad/range/delta"
  attr {
    key: "Tidx"
    value {
      type: DT_INT32
    }
  }
  attr {
    key: "_class"
    value {
      list {
        s: "loc:@loss/dense_2_loss/Sum_1"
      }
    }
  }
}
node {
  name: "training/Adam/gradients/loss/dense_2_loss/Sum_1_grad/Fill/value"
  op: "Const"
  attr {
    key: "_class"
    value {
      list {
        s: "loc:@loss/dense_2_loss/Sum_1"
      }
    }
  }
  attr {
    key: "dtype"
    value {
      type: DT_INT32
    }
  }
  attr {
    key: "value"
    value {
      tensor {
        dtype: DT_INT32
        tensor_shape {
        }
        int_val: 1
      }
    }
  }
}
node {
  name: "training/Adam/gradients/loss/dense_2_loss/Sum_1_grad/Fill"
  op: "Fill"
  input: "training/Adam/gradients/loss/dense_2_loss/Sum_1_grad/Shape_1"
  input: "training/Adam/gradients/loss/dense_2_loss/Sum_1_grad/Fill/value"
  attr {
    key: "T"
    value {
      type: DT_INT32
    }
  }
  attr {
    key: "_class"
    value {
      list {
        s: "loc:@loss/dense_2_loss/Sum_1"
      }
    }
  }
}
node {
  name: "training/Adam/gradients/loss/dense_2_loss/Sum_1_grad/DynamicStitch"
  op: "DynamicStitch"
  input: "training/Adam/gradients/loss/dense_2_loss/Sum_1_grad/range"
  input: "training/Adam/gradients/loss/dense_2_loss/Sum_1_grad/mod"
  input: "training/Adam/gradients/loss/dense_2_loss/Sum_1_grad/Shape"
  input: "training/Adam/gradients/loss/dense_2_loss/Sum_1_grad/Fill"
  attr {
    key: "N"
    value {
      i: 2
    }
  }
  attr {
    key: "T"
    value {
      type: DT_INT32
    }
  }
  attr {
    key: "_class"
    value {
      list {
        s: "loc:@loss/dense_2_loss/Sum_1"
      }
    }
  }
}
node {
  name: "training/Adam/gradients/loss/dense_2_loss/Sum_1_grad/Maximum/y"
  op: "Const"
  attr {
    key: "_class"
    value {
      list {
        s: "loc:@loss/dense_2_loss/Sum_1"
      }
    }
  }
  attr {
    key: "dtype"
    value {
      type: DT_INT32
    }
  }
  attr {
    key: "value"
    value {
      tensor {
        dtype: DT_INT32
        tensor_shape {
        }
        int_val: 1
      }
    }
  }
}
node {
  name: "training/Adam/gradients/loss/dense_2_loss/Sum_1_grad/Maximum"
  op: "Maximum"
  input: "training/Adam/gradients/loss/dense_2_loss/Sum_1_grad/DynamicStitch"
  input: "training/Adam/gradients/loss/dense_2_loss/Sum_1_grad/Maximum/y"
  attr {
    key: "T"
    value {
      type: DT_INT32
    }
  }
  attr {
    key: "_class"
    value {
      list {
        s: "loc:@loss/dense_2_loss/Sum_1"
      }
    }
  }
}
node {
  name: "training/Adam/gradients/loss/dense_2_loss/Sum_1_grad/floordiv"
  op: "FloorDiv"
  input: "training/Adam/gradients/loss/dense_2_loss/Sum_1_grad/Shape"
  input: "training/Adam/gradients/loss/dense_2_loss/Sum_1_grad/Maximum"
  attr {
    key: "T"
    value {
      type: DT_INT32
    }
  }
  attr {
    key: "_class"
    value {
      list {
        s: "loc:@loss/dense_2_loss/Sum_1"
      }
    }
  }
}
node {
  name: "training/Adam/gradients/loss/dense_2_loss/Sum_1_grad/Reshape"
  op: "Reshape"
  input: "training/Adam/gradients/loss/dense_2_loss/Neg_grad/Neg"
  input: "training/Adam/gradients/loss/dense_2_loss/Sum_1_grad/DynamicStitch"
  attr {
    key: "T"
    value {
      type: DT_FLOAT
    }
  }
  attr {
    key: "Tshape"
    value {
      type: DT_INT32
    }
  }
  attr {
    key: "_class"
    value {
      list {
        s: "loc:@loss/dense_2_loss/Sum_1"
      }
    }
  }
}
node {
  name: "training/Adam/gradients/loss/dense_2_loss/Sum_1_grad/Tile"
  op: "Tile"
  input: "training/Adam/gradients/loss/dense_2_loss/Sum_1_grad/Reshape"
  input: "training/Adam/gradients/loss/dense_2_loss/Sum_1_grad/floordiv"
  attr {
    key: "T"
    value {
      type: DT_FLOAT
    }
  }
  attr {
    key: "Tmultiples"
    value {
      type: DT_INT32
    }
  }
  attr {
    key: "_class"
    value {
      list {
        s: "loc:@loss/dense_2_loss/Sum_1"
      }
    }
  }
}
node {
  name: "training/Adam/gradients/loss/dense_2_loss/mul_grad/Shape"
  op: "Shape"
  input: "dense_2_target"
  attr {
    key: "T"
    value {
      type: DT_FLOAT
    }
  }
  attr {
    key: "_class"
    value {
      list {
        s: "loc:@loss/dense_2_loss/mul"
      }
    }
  }
  attr {
    key: "out_type"
    value {
      type: DT_INT32
    }
  }
}
node {
  name: "training/Adam/gradients/loss/dense_2_loss/mul_grad/Shape_1"
  op: "Shape"
  input: "loss/dense_2_loss/Log"
  attr {
    key: "T"
    value {
      type: DT_FLOAT
    }
  }
  attr {
    key: "_class"
    value {
      list {
        s: "loc:@loss/dense_2_loss/mul"
      }
    }
  }
  attr {
    key: "out_type"
    value {
      type: DT_INT32
    }
  }
}
node {
  name: "training/Adam/gradients/loss/dense_2_loss/mul_grad/BroadcastGradientArgs"
  op: "BroadcastGradientArgs"
  input: "training/Adam/gradients/loss/dense_2_loss/mul_grad/Shape"
  input: "training/Adam/gradients/loss/dense_2_loss/mul_grad/Shape_1"
  attr {
    key: "T"
    value {
      type: DT_INT32
    }
  }
  attr {
    key: "_class"
    value {
      list {
        s: "loc:@loss/dense_2_loss/mul"
      }
    }
  }
}
node {
  name: "training/Adam/gradients/loss/dense_2_loss/mul_grad/mul"
  op: "Mul"
  input: "training/Adam/gradients/loss/dense_2_loss/Sum_1_grad/Tile"
  input: "loss/dense_2_loss/Log"
  attr {
    key: "T"
    value {
      type: DT_FLOAT
    }
  }
  attr {
    key: "_class"
    value {
      list {
        s: "loc:@loss/dense_2_loss/mul"
      }
    }
  }
}
node {
  name: "training/Adam/gradients/loss/dense_2_loss/mul_grad/Sum"
  op: "Sum"
  input: "training/Adam/gradients/loss/dense_2_loss/mul_grad/mul"
  input: "training/Adam/gradients/loss/dense_2_loss/mul_grad/BroadcastGradientArgs"
  attr {
    key: "T"
    value {
      type: DT_FLOAT
    }
  }
  attr {
    key: "Tidx"
    value {
      type: DT_INT32
    }
  }
  attr {
    key: "_class"
    value {
      list {
        s: "loc:@loss/dense_2_loss/mul"
      }
    }
  }
  attr {
    key: "keep_dims"
    value {
      b: false
    }
  }
}
node {
  name: "training/Adam/gradients/loss/dense_2_loss/mul_grad/Reshape"
  op: "Reshape"
  input: "training/Adam/gradients/loss/dense_2_loss/mul_grad/Sum"
  input: "training/Adam/gradients/loss/dense_2_loss/mul_grad/Shape"
  attr {
    key: "T"
    value {
      type: DT_FLOAT
    }
  }
  attr {
    key: "Tshape"
    value {
      type: DT_INT32
    }
  }
  attr {
    key: "_class"
    value {
      list {
        s: "loc:@loss/dense_2_loss/mul"
      }
    }
  }
}
node {
  name: "training/Adam/gradients/loss/dense_2_loss/mul_grad/mul_1"
  op: "Mul"
  input: "dense_2_target"
  input: "training/Adam/gradients/loss/dense_2_loss/Sum_1_grad/Tile"
  attr {
    key: "T"
    value {
      type: DT_FLOAT
    }
  }
  attr {
    key: "_class"
    value {
      list {
        s: "loc:@loss/dense_2_loss/mul"
      }
    }
  }
}
node {
  name: "training/Adam/gradients/loss/dense_2_loss/mul_grad/Sum_1"
  op: "Sum"
  input: "training/Adam/gradients/loss/dense_2_loss/mul_grad/mul_1"
  input: "training/Adam/gradients/loss/dense_2_loss/mul_grad/BroadcastGradientArgs:1"
  attr {
    key: "T"
    value {
      type: DT_FLOAT
    }
  }
  attr {
    key: "Tidx"
    value {
      type: DT_INT32
    }
  }
  attr {
    key: "_class"
    value {
      list {
        s: "loc:@loss/dense_2_loss/mul"
      }
    }
  }
  attr {
    key: "keep_dims"
    value {
      b: false
    }
  }
}
node {
  name: "training/Adam/gradients/loss/dense_2_loss/mul_grad/Reshape_1"
  op: "Reshape"
  input: "training/Adam/gradients/loss/dense_2_loss/mul_grad/Sum_1"
  input: "training/Adam/gradients/loss/dense_2_loss/mul_grad/Shape_1"
  attr {
    key: "T"
    value {
      type: DT_FLOAT
    }
  }
  attr {
    key: "Tshape"
    value {
      type: DT_INT32
    }
  }
  attr {
    key: "_class"
    value {
      list {
        s: "loc:@loss/dense_2_loss/mul"
      }
    }
  }
}
node {
  name: "training/Adam/gradients/loss/dense_2_loss/Log_grad/Reciprocal"
  op: "Reciprocal"
  input: "loss/dense_2_loss/clip_by_value"
  input: "^training/Adam/gradients/loss/dense_2_loss/mul_grad/Reshape_1"
  attr {
    key: "T"
    value {
      type: DT_FLOAT
    }
  }
  attr {
    key: "_class"
    value {
      list {
        s: "loc:@loss/dense_2_loss/Log"
      }
    }
  }
}
node {
  name: "training/Adam/gradients/loss/dense_2_loss/Log_grad/mul"
  op: "Mul"
  input: "training/Adam/gradients/loss/dense_2_loss/mul_grad/Reshape_1"
  input: "training/Adam/gradients/loss/dense_2_loss/Log_grad/Reciprocal"
  attr {
    key: "T"
    value {
      type: DT_FLOAT
    }
  }
  attr {
    key: "_class"
    value {
      list {
        s: "loc:@loss/dense_2_loss/Log"
      }
    }
  }
}
node {
  name: "training/Adam/gradients/loss/dense_2_loss/clip_by_value_grad/Shape"
  op: "Shape"
  input: "loss/dense_2_loss/clip_by_value/Minimum"
  attr {
    key: "T"
    value {
      type: DT_FLOAT
    }
  }
  attr {
    key: "_class"
    value {
      list {
        s: "loc:@loss/dense_2_loss/clip_by_value"
      }
    }
  }
  attr {
    key: "out_type"
    value {
      type: DT_INT32
    }
  }
}
node {
  name: "training/Adam/gradients/loss/dense_2_loss/clip_by_value_grad/Shape_1"
  op: "Const"
  attr {
    key: "_class"
    value {
      list {
        s: "loc:@loss/dense_2_loss/clip_by_value"
      }
    }
  }
  attr {
    key: "dtype"
    value {
      type: DT_INT32
    }
  }
  attr {
    key: "value"
    value {
      tensor {
        dtype: DT_INT32
        tensor_shape {
          dim {
          }
        }
      }
    }
  }
}
node {
  name: "training/Adam/gradients/loss/dense_2_loss/clip_by_value_grad/Shape_2"
  op: "Shape"
  input: "training/Adam/gradients/loss/dense_2_loss/Log_grad/mul"
  attr {
    key: "T"
    value {
      type: DT_FLOAT
    }
  }
  attr {
    key: "_class"
    value {
      list {
        s: "loc:@loss/dense_2_loss/clip_by_value"
      }
    }
  }
  attr {
    key: "out_type"
    value {
      type: DT_INT32
    }
  }
}
node {
  name: "training/Adam/gradients/loss/dense_2_loss/clip_by_value_grad/zeros/Const"
  op: "Const"
  attr {
    key: "_class"
    value {
      list {
        s: "loc:@loss/dense_2_loss/clip_by_value"
      }
    }
  }
  attr {
    key: "dtype"
    value {
      type: DT_FLOAT
    }
  }
  attr {
    key: "value"
    value {
      tensor {
        dtype: DT_FLOAT
        tensor_shape {
        }
        float_val: 0.0
      }
    }
  }
}
node {
  name: "training/Adam/gradients/loss/dense_2_loss/clip_by_value_grad/zeros"
  op: "Fill"
  input: "training/Adam/gradients/loss/dense_2_loss/clip_by_value_grad/Shape_2"
  input: "training/Adam/gradients/loss/dense_2_loss/clip_by_value_grad/zeros/Const"
  attr {
    key: "T"
    value {
      type: DT_FLOAT
    }
  }
  attr {
    key: "_class"
    value {
      list {
        s: "loc:@loss/dense_2_loss/clip_by_value"
      }
    }
  }
}
node {
  name: "training/Adam/gradients/loss/dense_2_loss/clip_by_value_grad/GreaterEqual"
  op: "GreaterEqual"
  input: "loss/dense_2_loss/clip_by_value/Minimum"
  input: "loss/dense_2_loss/Const"
  attr {
    key: "T"
    value {
      type: DT_FLOAT
    }
  }
  attr {
    key: "_class"
    value {
      list {
        s: "loc:@loss/dense_2_loss/clip_by_value"
      }
    }
  }
}
node {
  name: "training/Adam/gradients/loss/dense_2_loss/clip_by_value_grad/BroadcastGradientArgs"
  op: "BroadcastGradientArgs"
  input: "training/Adam/gradients/loss/dense_2_loss/clip_by_value_grad/Shape"
  input: "training/Adam/gradients/loss/dense_2_loss/clip_by_value_grad/Shape_1"
  attr {
    key: "T"
    value {
      type: DT_INT32
    }
  }
  attr {
    key: "_class"
    value {
      list {
        s: "loc:@loss/dense_2_loss/clip_by_value"
      }
    }
  }
}
node {
  name: "training/Adam/gradients/loss/dense_2_loss/clip_by_value_grad/Select"
  op: "Select"
  input: "training/Adam/gradients/loss/dense_2_loss/clip_by_value_grad/GreaterEqual"
  input: "training/Adam/gradients/loss/dense_2_loss/Log_grad/mul"
  input: "training/Adam/gradients/loss/dense_2_loss/clip_by_value_grad/zeros"
  attr {
    key: "T"
    value {
      type: DT_FLOAT
    }
  }
  attr {
    key: "_class"
    value {
      list {
        s: "loc:@loss/dense_2_loss/clip_by_value"
      }
    }
  }
}
node {
  name: "training/Adam/gradients/loss/dense_2_loss/clip_by_value_grad/Select_1"
  op: "Select"
  input: "training/Adam/gradients/loss/dense_2_loss/clip_by_value_grad/GreaterEqual"
  input: "training/Adam/gradients/loss/dense_2_loss/clip_by_value_grad/zeros"
  input: "training/Adam/gradients/loss/dense_2_loss/Log_grad/mul"
  attr {
    key: "T"
    value {
      type: DT_FLOAT
    }
  }
  attr {
    key: "_class"
    value {
      list {
        s: "loc:@loss/dense_2_loss/clip_by_value"
      }
    }
  }
}
node {
  name: "training/Adam/gradients/loss/dense_2_loss/clip_by_value_grad/Sum"
  op: "Sum"
  input: "training/Adam/gradients/loss/dense_2_loss/clip_by_value_grad/Select"
  input: "training/Adam/gradients/loss/dense_2_loss/clip_by_value_grad/BroadcastGradientArgs"
  attr {
    key: "T"
    value {
      type: DT_FLOAT
    }
  }
  attr {
    key: "Tidx"
    value {
      type: DT_INT32
    }
  }
  attr {
    key: "_class"
    value {
      list {
        s: "loc:@loss/dense_2_loss/clip_by_value"
      }
    }
  }
  attr {
    key: "keep_dims"
    value {
      b: false
    }
  }
}
node {
  name: "training/Adam/gradients/loss/dense_2_loss/clip_by_value_grad/Reshape"
  op: "Reshape"
  input: "training/Adam/gradients/loss/dense_2_loss/clip_by_value_grad/Sum"
  input: "training/Adam/gradients/loss/dense_2_loss/clip_by_value_grad/Shape"
  attr {
    key: "T"
    value {
      type: DT_FLOAT
    }
  }
  attr {
    key: "Tshape"
    value {
      type: DT_INT32
    }
  }
  attr {
    key: "_class"
    value {
      list {
        s: "loc:@loss/dense_2_loss/clip_by_value"
      }
    }
  }
}
node {
  name: "training/Adam/gradients/loss/dense_2_loss/clip_by_value_grad/Sum_1"
  op: "Sum"
  input: "training/Adam/gradients/loss/dense_2_loss/clip_by_value_grad/Select_1"
  input: "training/Adam/gradients/loss/dense_2_loss/clip_by_value_grad/BroadcastGradientArgs:1"
  attr {
    key: "T"
    value {
      type: DT_FLOAT
    }
  }
  attr {
    key: "Tidx"
    value {
      type: DT_INT32
    }
  }
  attr {
    key: "_class"
    value {
      list {
        s: "loc:@loss/dense_2_loss/clip_by_value"
      }
    }
  }
  attr {
    key: "keep_dims"
    value {
      b: false
    }
  }
}
node {
  name: "training/Adam/gradients/loss/dense_2_loss/clip_by_value_grad/Reshape_1"
  op: "Reshape"
  input: "training/Adam/gradients/loss/dense_2_loss/clip_by_value_grad/Sum_1"
  input: "training/Adam/gradients/loss/dense_2_loss/clip_by_value_grad/Shape_1"
  attr {
    key: "T"
    value {
      type: DT_FLOAT
    }
  }
  attr {
    key: "Tshape"
    value {
      type: DT_INT32
    }
  }
  attr {
    key: "_class"
    value {
      list {
        s: "loc:@loss/dense_2_loss/clip_by_value"
      }
    }
  }
}
node {
  name: "training/Adam/gradients/loss/dense_2_loss/clip_by_value/Minimum_grad/Shape"
  op: "Shape"
  input: "loss/dense_2_loss/truediv"
  attr {
    key: "T"
    value {
      type: DT_FLOAT
    }
  }
  attr {
    key: "_class"
    value {
      list {
        s: "loc:@loss/dense_2_loss/clip_by_value/Minimum"
      }
    }
  }
  attr {
    key: "out_type"
    value {
      type: DT_INT32
    }
  }
}
node {
  name: "training/Adam/gradients/loss/dense_2_loss/clip_by_value/Minimum_grad/Shape_1"
  op: "Const"
  attr {
    key: "_class"
    value {
      list {
        s: "loc:@loss/dense_2_loss/clip_by_value/Minimum"
      }
    }
  }
  attr {
    key: "dtype"
    value {
      type: DT_INT32
    }
  }
  attr {
    key: "value"
    value {
      tensor {
        dtype: DT_INT32
        tensor_shape {
          dim {
          }
        }
      }
    }
  }
}
node {
  name: "training/Adam/gradients/loss/dense_2_loss/clip_by_value/Minimum_grad/Shape_2"
  op: "Shape"
  input: "training/Adam/gradients/loss/dense_2_loss/clip_by_value_grad/Reshape"
  attr {
    key: "T"
    value {
      type: DT_FLOAT
    }
  }
  attr {
    key: "_class"
    value {
      list {
        s: "loc:@loss/dense_2_loss/clip_by_value/Minimum"
      }
    }
  }
  attr {
    key: "out_type"
    value {
      type: DT_INT32
    }
  }
}
node {
  name: "training/Adam/gradients/loss/dense_2_loss/clip_by_value/Minimum_grad/zeros/Const"
  op: "Const"
  attr {
    key: "_class"
    value {
      list {
        s: "loc:@loss/dense_2_loss/clip_by_value/Minimum"
      }
    }
  }
  attr {
    key: "dtype"
    value {
      type: DT_FLOAT
    }
  }
  attr {
    key: "value"
    value {
      tensor {
        dtype: DT_FLOAT
        tensor_shape {
        }
        float_val: 0.0
      }
    }
  }
}
node {
  name: "training/Adam/gradients/loss/dense_2_loss/clip_by_value/Minimum_grad/zeros"
  op: "Fill"
  input: "training/Adam/gradients/loss/dense_2_loss/clip_by_value/Minimum_grad/Shape_2"
  input: "training/Adam/gradients/loss/dense_2_loss/clip_by_value/Minimum_grad/zeros/Const"
  attr {
    key: "T"
    value {
      type: DT_FLOAT
    }
  }
  attr {
    key: "_class"
    value {
      list {
        s: "loc:@loss/dense_2_loss/clip_by_value/Minimum"
      }
    }
  }
}
node {
  name: "training/Adam/gradients/loss/dense_2_loss/clip_by_value/Minimum_grad/LessEqual"
  op: "LessEqual"
  input: "loss/dense_2_loss/truediv"
  input: "loss/dense_2_loss/sub"
  attr {
    key: "T"
    value {
      type: DT_FLOAT
    }
  }
  attr {
    key: "_class"
    value {
      list {
        s: "loc:@loss/dense_2_loss/clip_by_value/Minimum"
      }
    }
  }
}
node {
  name: "training/Adam/gradients/loss/dense_2_loss/clip_by_value/Minimum_grad/BroadcastGradientArgs"
  op: "BroadcastGradientArgs"
  input: "training/Adam/gradients/loss/dense_2_loss/clip_by_value/Minimum_grad/Shape"
  input: "training/Adam/gradients/loss/dense_2_loss/clip_by_value/Minimum_grad/Shape_1"
  attr {
    key: "T"
    value {
      type: DT_INT32
    }
  }
  attr {
    key: "_class"
    value {
      list {
        s: "loc:@loss/dense_2_loss/clip_by_value/Minimum"
      }
    }
  }
}
node {
  name: "training/Adam/gradients/loss/dense_2_loss/clip_by_value/Minimum_grad/Select"
  op: "Select"
  input: "training/Adam/gradients/loss/dense_2_loss/clip_by_value/Minimum_grad/LessEqual"
  input: "training/Adam/gradients/loss/dense_2_loss/clip_by_value_grad/Reshape"
  input: "training/Adam/gradients/loss/dense_2_loss/clip_by_value/Minimum_grad/zeros"
  attr {
    key: "T"
    value {
      type: DT_FLOAT
    }
  }
  attr {
    key: "_class"
    value {
      list {
        s: "loc:@loss/dense_2_loss/clip_by_value/Minimum"
      }
    }
  }
}
node {
  name: "training/Adam/gradients/loss/dense_2_loss/clip_by_value/Minimum_grad/Select_1"
  op: "Select"
  input: "training/Adam/gradients/loss/dense_2_loss/clip_by_value/Minimum_grad/LessEqual"
  input: "training/Adam/gradients/loss/dense_2_loss/clip_by_value/Minimum_grad/zeros"
  input: "training/Adam/gradients/loss/dense_2_loss/clip_by_value_grad/Reshape"
  attr {
    key: "T"
    value {
      type: DT_FLOAT
    }
  }
  attr {
    key: "_class"
    value {
      list {
        s: "loc:@loss/dense_2_loss/clip_by_value/Minimum"
      }
    }
  }
}
node {
  name: "training/Adam/gradients/loss/dense_2_loss/clip_by_value/Minimum_grad/Sum"
  op: "Sum"
  input: "training/Adam/gradients/loss/dense_2_loss/clip_by_value/Minimum_grad/Select"
  input: "training/Adam/gradients/loss/dense_2_loss/clip_by_value/Minimum_grad/BroadcastGradientArgs"
  attr {
    key: "T"
    value {
      type: DT_FLOAT
    }
  }
  attr {
    key: "Tidx"
    value {
      type: DT_INT32
    }
  }
  attr {
    key: "_class"
    value {
      list {
        s: "loc:@loss/dense_2_loss/clip_by_value/Minimum"
      }
    }
  }
  attr {
    key: "keep_dims"
    value {
      b: false
    }
  }
}
node {
  name: "training/Adam/gradients/loss/dense_2_loss/clip_by_value/Minimum_grad/Reshape"
  op: "Reshape"
  input: "training/Adam/gradients/loss/dense_2_loss/clip_by_value/Minimum_grad/Sum"
  input: "training/Adam/gradients/loss/dense_2_loss/clip_by_value/Minimum_grad/Shape"
  attr {
    key: "T"
    value {
      type: DT_FLOAT
    }
  }
  attr {
    key: "Tshape"
    value {
      type: DT_INT32
    }
  }
  attr {
    key: "_class"
    value {
      list {
        s: "loc:@loss/dense_2_loss/clip_by_value/Minimum"
      }
    }
  }
}
node {
  name: "training/Adam/gradients/loss/dense_2_loss/clip_by_value/Minimum_grad/Sum_1"
  op: "Sum"
  input: "training/Adam/gradients/loss/dense_2_loss/clip_by_value/Minimum_grad/Select_1"
  input: "training/Adam/gradients/loss/dense_2_loss/clip_by_value/Minimum_grad/BroadcastGradientArgs:1"
  attr {
    key: "T"
    value {
      type: DT_FLOAT
    }
  }
  attr {
    key: "Tidx"
    value {
      type: DT_INT32
    }
  }
  attr {
    key: "_class"
    value {
      list {
        s: "loc:@loss/dense_2_loss/clip_by_value/Minimum"
      }
    }
  }
  attr {
    key: "keep_dims"
    value {
      b: false
    }
  }
}
node {
  name: "training/Adam/gradients/loss/dense_2_loss/clip_by_value/Minimum_grad/Reshape_1"
  op: "Reshape"
  input: "training/Adam/gradients/loss/dense_2_loss/clip_by_value/Minimum_grad/Sum_1"
  input: "training/Adam/gradients/loss/dense_2_loss/clip_by_value/Minimum_grad/Shape_1"
  attr {
    key: "T"
    value {
      type: DT_FLOAT
    }
  }
  attr {
    key: "Tshape"
    value {
      type: DT_INT32
    }
  }
  attr {
    key: "_class"
    value {
      list {
        s: "loc:@loss/dense_2_loss/clip_by_value/Minimum"
      }
    }
  }
}
node {
  name: "training/Adam/gradients/loss/dense_2_loss/truediv_grad/Shape"
  op: "Shape"
  input: "dense_2/Softmax"
  attr {
    key: "T"
    value {
      type: DT_FLOAT
    }
  }
  attr {
    key: "_class"
    value {
      list {
        s: "loc:@loss/dense_2_loss/truediv"
      }
    }
  }
  attr {
    key: "out_type"
    value {
      type: DT_INT32
    }
  }
}
node {
  name: "training/Adam/gradients/loss/dense_2_loss/truediv_grad/Shape_1"
  op: "Shape"
  input: "loss/dense_2_loss/Sum"
  attr {
    key: "T"
    value {
      type: DT_FLOAT
    }
  }
  attr {
    key: "_class"
    value {
      list {
        s: "loc:@loss/dense_2_loss/truediv"
      }
    }
  }
  attr {
    key: "out_type"
    value {
      type: DT_INT32
    }
  }
}
node {
  name: "training/Adam/gradients/loss/dense_2_loss/truediv_grad/BroadcastGradientArgs"
  op: "BroadcastGradientArgs"
  input: "training/Adam/gradients/loss/dense_2_loss/truediv_grad/Shape"
  input: "training/Adam/gradients/loss/dense_2_loss/truediv_grad/Shape_1"
  attr {
    key: "T"
    value {
      type: DT_INT32
    }
  }
  attr {
    key: "_class"
    value {
      list {
        s: "loc:@loss/dense_2_loss/truediv"
      }
    }
  }
}
node {
  name: "training/Adam/gradients/loss/dense_2_loss/truediv_grad/RealDiv"
  op: "RealDiv"
  input: "training/Adam/gradients/loss/dense_2_loss/clip_by_value/Minimum_grad/Reshape"
  input: "loss/dense_2_loss/Sum"
  attr {
    key: "T"
    value {
      type: DT_FLOAT
    }
  }
  attr {
    key: "_class"
    value {
      list {
        s: "loc:@loss/dense_2_loss/truediv"
      }
    }
  }
}
node {
  name: "training/Adam/gradients/loss/dense_2_loss/truediv_grad/Sum"
  op: "Sum"
  input: "training/Adam/gradients/loss/dense_2_loss/truediv_grad/RealDiv"
  input: "training/Adam/gradients/loss/dense_2_loss/truediv_grad/BroadcastGradientArgs"
  attr {
    key: "T"
    value {
      type: DT_FLOAT
    }
  }
  attr {
    key: "Tidx"
    value {
      type: DT_INT32
    }
  }
  attr {
    key: "_class"
    value {
      list {
        s: "loc:@loss/dense_2_loss/truediv"
      }
    }
  }
  attr {
    key: "keep_dims"
    value {
      b: false
    }
  }
}
node {
  name: "training/Adam/gradients/loss/dense_2_loss/truediv_grad/Reshape"
  op: "Reshape"
  input: "training/Adam/gradients/loss/dense_2_loss/truediv_grad/Sum"
  input: "training/Adam/gradients/loss/dense_2_loss/truediv_grad/Shape"
  attr {
    key: "T"
    value {
      type: DT_FLOAT
    }
  }
  attr {
    key: "Tshape"
    value {
      type: DT_INT32
    }
  }
  attr {
    key: "_class"
    value {
      list {
        s: "loc:@loss/dense_2_loss/truediv"
      }
    }
  }
}
node {
  name: "training/Adam/gradients/loss/dense_2_loss/truediv_grad/Neg"
  op: "Neg"
  input: "dense_2/Softmax"
  attr {
    key: "T"
    value {
      type: DT_FLOAT
    }
  }
  attr {
    key: "_class"
    value {
      list {
        s: "loc:@loss/dense_2_loss/truediv"
      }
    }
  }
}
node {
  name: "training/Adam/gradients/loss/dense_2_loss/truediv_grad/RealDiv_1"
  op: "RealDiv"
  input: "training/Adam/gradients/loss/dense_2_loss/truediv_grad/Neg"
  input: "loss/dense_2_loss/Sum"
  attr {
    key: "T"
    value {
      type: DT_FLOAT
    }
  }
  attr {
    key: "_class"
    value {
      list {
        s: "loc:@loss/dense_2_loss/truediv"
      }
    }
  }
}
node {
  name: "training/Adam/gradients/loss/dense_2_loss/truediv_grad/RealDiv_2"
  op: "RealDiv"
  input: "training/Adam/gradients/loss/dense_2_loss/truediv_grad/RealDiv_1"
  input: "loss/dense_2_loss/Sum"
  attr {
    key: "T"
    value {
      type: DT_FLOAT
    }
  }
  attr {
    key: "_class"
    value {
      list {
        s: "loc:@loss/dense_2_loss/truediv"
      }
    }
  }
}
node {
  name: "training/Adam/gradients/loss/dense_2_loss/truediv_grad/mul"
  op: "Mul"
  input: "training/Adam/gradients/loss/dense_2_loss/clip_by_value/Minimum_grad/Reshape"
  input: "training/Adam/gradients/loss/dense_2_loss/truediv_grad/RealDiv_2"
  attr {
    key: "T"
    value {
      type: DT_FLOAT
    }
  }
  attr {
    key: "_class"
    value {
      list {
        s: "loc:@loss/dense_2_loss/truediv"
      }
    }
  }
}
node {
  name: "training/Adam/gradients/loss/dense_2_loss/truediv_grad/Sum_1"
  op: "Sum"
  input: "training/Adam/gradients/loss/dense_2_loss/truediv_grad/mul"
  input: "training/Adam/gradients/loss/dense_2_loss/truediv_grad/BroadcastGradientArgs:1"
  attr {
    key: "T"
    value {
      type: DT_FLOAT
    }
  }
  attr {
    key: "Tidx"
    value {
      type: DT_INT32
    }
  }
  attr {
    key: "_class"
    value {
      list {
        s: "loc:@loss/dense_2_loss/truediv"
      }
    }
  }
  attr {
    key: "keep_dims"
    value {
      b: false
    }
  }
}
node {
  name: "training/Adam/gradients/loss/dense_2_loss/truediv_grad/Reshape_1"
  op: "Reshape"
  input: "training/Adam/gradients/loss/dense_2_loss/truediv_grad/Sum_1"
  input: "training/Adam/gradients/loss/dense_2_loss/truediv_grad/Shape_1"
  attr {
    key: "T"
    value {
      type: DT_FLOAT
    }
  }
  attr {
    key: "Tshape"
    value {
      type: DT_INT32
    }
  }
  attr {
    key: "_class"
    value {
      list {
        s: "loc:@loss/dense_2_loss/truediv"
      }
    }
  }
}
node {
  name: "training/Adam/gradients/loss/dense_2_loss/Sum_grad/Shape"
  op: "Shape"
  input: "dense_2/Softmax"
  attr {
    key: "T"
    value {
      type: DT_FLOAT
    }
  }
  attr {
    key: "_class"
    value {
      list {
        s: "loc:@loss/dense_2_loss/Sum"
      }
    }
  }
  attr {
    key: "out_type"
    value {
      type: DT_INT32
    }
  }
}
node {
  name: "training/Adam/gradients/loss/dense_2_loss/Sum_grad/Size"
  op: "Const"
  attr {
    key: "_class"
    value {
      list {
        s: "loc:@loss/dense_2_loss/Sum"
      }
    }
  }
  attr {
    key: "dtype"
    value {
      type: DT_INT32
    }
  }
  attr {
    key: "value"
    value {
      tensor {
        dtype: DT_INT32
        tensor_shape {
        }
        int_val: 2
      }
    }
  }
}
node {
  name: "training/Adam/gradients/loss/dense_2_loss/Sum_grad/add"
  op: "Add"
  input: "loss/dense_2_loss/Sum/reduction_indices"
  input: "training/Adam/gradients/loss/dense_2_loss/Sum_grad/Size"
  attr {
    key: "T"
    value {
      type: DT_INT32
    }
  }
  attr {
    key: "_class"
    value {
      list {
        s: "loc:@loss/dense_2_loss/Sum"
      }
    }
  }
}
node {
  name: "training/Adam/gradients/loss/dense_2_loss/Sum_grad/mod"
  op: "FloorMod"
  input: "training/Adam/gradients/loss/dense_2_loss/Sum_grad/add"
  input: "training/Adam/gradients/loss/dense_2_loss/Sum_grad/Size"
  attr {
    key: "T"
    value {
      type: DT_INT32
    }
  }
  attr {
    key: "_class"
    value {
      list {
        s: "loc:@loss/dense_2_loss/Sum"
      }
    }
  }
}
node {
  name: "training/Adam/gradients/loss/dense_2_loss/Sum_grad/Shape_1"
  op: "Const"
  attr {
    key: "_class"
    value {
      list {
        s: "loc:@loss/dense_2_loss/Sum"
      }
    }
  }
  attr {
    key: "dtype"
    value {
      type: DT_INT32
    }
  }
  attr {
    key: "value"
    value {
      tensor {
        dtype: DT_INT32
        tensor_shape {
          dim {
          }
        }
      }
    }
  }
}
node {
  name: "training/Adam/gradients/loss/dense_2_loss/Sum_grad/range/start"
  op: "Const"
  attr {
    key: "_class"
    value {
      list {
        s: "loc:@loss/dense_2_loss/Sum"
      }
    }
  }
  attr {
    key: "dtype"
    value {
      type: DT_INT32
    }
  }
  attr {
    key: "value"
    value {
      tensor {
        dtype: DT_INT32
        tensor_shape {
        }
        int_val: 0
      }
    }
  }
}
node {
  name: "training/Adam/gradients/loss/dense_2_loss/Sum_grad/range/delta"
  op: "Const"
  attr {
    key: "_class"
    value {
      list {
        s: "loc:@loss/dense_2_loss/Sum"
      }
    }
  }
  attr {
    key: "dtype"
    value {
      type: DT_INT32
    }
  }
  attr {
    key: "value"
    value {
      tensor {
        dtype: DT_INT32
        tensor_shape {
        }
        int_val: 1
      }
    }
  }
}
node {
  name: "training/Adam/gradients/loss/dense_2_loss/Sum_grad/range"
  op: "Range"
  input: "training/Adam/gradients/loss/dense_2_loss/Sum_grad/range/start"
  input: "training/Adam/gradients/loss/dense_2_loss/Sum_grad/Size"
  input: "training/Adam/gradients/loss/dense_2_loss/Sum_grad/range/delta"
  attr {
    key: "Tidx"
    value {
      type: DT_INT32
    }
  }
  attr {
    key: "_class"
    value {
      list {
        s: "loc:@loss/dense_2_loss/Sum"
      }
    }
  }
}
node {
  name: "training/Adam/gradients/loss/dense_2_loss/Sum_grad/Fill/value"
  op: "Const"
  attr {
    key: "_class"
    value {
      list {
        s: "loc:@loss/dense_2_loss/Sum"
      }
    }
  }
  attr {
    key: "dtype"
    value {
      type: DT_INT32
    }
  }
  attr {
    key: "value"
    value {
      tensor {
        dtype: DT_INT32
        tensor_shape {
        }
        int_val: 1
      }
    }
  }
}
node {
  name: "training/Adam/gradients/loss/dense_2_loss/Sum_grad/Fill"
  op: "Fill"
  input: "training/Adam/gradients/loss/dense_2_loss/Sum_grad/Shape_1"
  input: "training/Adam/gradients/loss/dense_2_loss/Sum_grad/Fill/value"
  attr {
    key: "T"
    value {
      type: DT_INT32
    }
  }
  attr {
    key: "_class"
    value {
      list {
        s: "loc:@loss/dense_2_loss/Sum"
      }
    }
  }
}
node {
  name: "training/Adam/gradients/loss/dense_2_loss/Sum_grad/DynamicStitch"
  op: "DynamicStitch"
  input: "training/Adam/gradients/loss/dense_2_loss/Sum_grad/range"
  input: "training/Adam/gradients/loss/dense_2_loss/Sum_grad/mod"
  input: "training/Adam/gradients/loss/dense_2_loss/Sum_grad/Shape"
  input: "training/Adam/gradients/loss/dense_2_loss/Sum_grad/Fill"
  attr {
    key: "N"
    value {
      i: 2
    }
  }
  attr {
    key: "T"
    value {
      type: DT_INT32
    }
  }
  attr {
    key: "_class"
    value {
      list {
        s: "loc:@loss/dense_2_loss/Sum"
      }
    }
  }
}
node {
  name: "training/Adam/gradients/loss/dense_2_loss/Sum_grad/Maximum/y"
  op: "Const"
  attr {
    key: "_class"
    value {
      list {
        s: "loc:@loss/dense_2_loss/Sum"
      }
    }
  }
  attr {
    key: "dtype"
    value {
      type: DT_INT32
    }
  }
  attr {
    key: "value"
    value {
      tensor {
        dtype: DT_INT32
        tensor_shape {
        }
        int_val: 1
      }
    }
  }
}
node {
  name: "training/Adam/gradients/loss/dense_2_loss/Sum_grad/Maximum"
  op: "Maximum"
  input: "training/Adam/gradients/loss/dense_2_loss/Sum_grad/DynamicStitch"
  input: "training/Adam/gradients/loss/dense_2_loss/Sum_grad/Maximum/y"
  attr {
    key: "T"
    value {
      type: DT_INT32
    }
  }
  attr {
    key: "_class"
    value {
      list {
        s: "loc:@loss/dense_2_loss/Sum"
      }
    }
  }
}
node {
  name: "training/Adam/gradients/loss/dense_2_loss/Sum_grad/floordiv"
  op: "FloorDiv"
  input: "training/Adam/gradients/loss/dense_2_loss/Sum_grad/Shape"
  input: "training/Adam/gradients/loss/dense_2_loss/Sum_grad/Maximum"
  attr {
    key: "T"
    value {
      type: DT_INT32
    }
  }
  attr {
    key: "_class"
    value {
      list {
        s: "loc:@loss/dense_2_loss/Sum"
      }
    }
  }
}
node {
  name: "training/Adam/gradients/loss/dense_2_loss/Sum_grad/Reshape"
  op: "Reshape"
  input: "training/Adam/gradients/loss/dense_2_loss/truediv_grad/Reshape_1"
  input: "training/Adam/gradients/loss/dense_2_loss/Sum_grad/DynamicStitch"
  attr {
    key: "T"
    value {
      type: DT_FLOAT
    }
  }
  attr {
    key: "Tshape"
    value {
      type: DT_INT32
    }
  }
  attr {
    key: "_class"
    value {
      list {
        s: "loc:@loss/dense_2_loss/Sum"
      }
    }
  }
}
node {
  name: "training/Adam/gradients/loss/dense_2_loss/Sum_grad/Tile"
  op: "Tile"
  input: "training/Adam/gradients/loss/dense_2_loss/Sum_grad/Reshape"
  input: "training/Adam/gradients/loss/dense_2_loss/Sum_grad/floordiv"
  attr {
    key: "T"
    value {
      type: DT_FLOAT
    }
  }
  attr {
    key: "Tmultiples"
    value {
      type: DT_INT32
    }
  }
  attr {
    key: "_class"
    value {
      list {
        s: "loc:@loss/dense_2_loss/Sum"
      }
    }
  }
}
node {
  name: "training/Adam/gradients/AddN"
  op: "AddN"
  input: "training/Adam/gradients/loss/dense_2_loss/truediv_grad/Reshape"
  input: "training/Adam/gradients/loss/dense_2_loss/Sum_grad/Tile"
  attr {
    key: "N"
    value {
      i: 2
    }
  }
  attr {
    key: "T"
    value {
      type: DT_FLOAT
    }
  }
  attr {
    key: "_class"
    value {
      list {
        s: "loc:@loss/dense_2_loss/truediv"
      }
    }
  }
}
node {
  name: "training/Adam/gradients/dense_2/Softmax_grad/mul"
  op: "Mul"
  input: "training/Adam/gradients/AddN"
  input: "dense_2/Softmax"
  attr {
    key: "T"
    value {
      type: DT_FLOAT
    }
  }
  attr {
    key: "_class"
    value {
      list {
        s: "loc:@dense_2/Softmax"
      }
    }
  }
}
node {
  name: "training/Adam/gradients/dense_2/Softmax_grad/Sum/reduction_indices"
  op: "Const"
  attr {
    key: "_class"
    value {
      list {
        s: "loc:@dense_2/Softmax"
      }
    }
  }
  attr {
    key: "dtype"
    value {
      type: DT_INT32
    }
  }
  attr {
    key: "value"
    value {
      tensor {
        dtype: DT_INT32
        tensor_shape {
          dim {
            size: 1
          }
        }
        int_val: 1
      }
    }
  }
}
node {
  name: "training/Adam/gradients/dense_2/Softmax_grad/Sum"
  op: "Sum"
  input: "training/Adam/gradients/dense_2/Softmax_grad/mul"
  input: "training/Adam/gradients/dense_2/Softmax_grad/Sum/reduction_indices"
  attr {
    key: "T"
    value {
      type: DT_FLOAT
    }
  }
  attr {
    key: "Tidx"
    value {
      type: DT_INT32
    }
  }
  attr {
    key: "_class"
    value {
      list {
        s: "loc:@dense_2/Softmax"
      }
    }
  }
  attr {
    key: "keep_dims"
    value {
      b: false
    }
  }
}
node {
  name: "training/Adam/gradients/dense_2/Softmax_grad/Reshape/shape"
  op: "Const"
  attr {
    key: "_class"
    value {
      list {
        s: "loc:@dense_2/Softmax"
      }
    }
  }
  attr {
    key: "dtype"
    value {
      type: DT_INT32
    }
  }
  attr {
    key: "value"
    value {
      tensor {
        dtype: DT_INT32
        tensor_shape {
          dim {
            size: 2
          }
        }
        tensor_content: "\377\377\377\377\001\000\000\000"
      }
    }
  }
}
node {
  name: "training/Adam/gradients/dense_2/Softmax_grad/Reshape"
  op: "Reshape"
  input: "training/Adam/gradients/dense_2/Softmax_grad/Sum"
  input: "training/Adam/gradients/dense_2/Softmax_grad/Reshape/shape"
  attr {
    key: "T"
    value {
      type: DT_FLOAT
    }
  }
  attr {
    key: "Tshape"
    value {
      type: DT_INT32
    }
  }
  attr {
    key: "_class"
    value {
      list {
        s: "loc:@dense_2/Softmax"
      }
    }
  }
}
node {
  name: "training/Adam/gradients/dense_2/Softmax_grad/sub"
  op: "Sub"
  input: "training/Adam/gradients/AddN"
  input: "training/Adam/gradients/dense_2/Softmax_grad/Reshape"
  attr {
    key: "T"
    value {
      type: DT_FLOAT
    }
  }
  attr {
    key: "_class"
    value {
      list {
        s: "loc:@dense_2/Softmax"
      }
    }
  }
}
node {
  name: "training/Adam/gradients/dense_2/Softmax_grad/mul_1"
  op: "Mul"
  input: "training/Adam/gradients/dense_2/Softmax_grad/sub"
  input: "dense_2/Softmax"
  attr {
    key: "T"
    value {
      type: DT_FLOAT
    }
  }
  attr {
    key: "_class"
    value {
      list {
        s: "loc:@dense_2/Softmax"
      }
    }
  }
}
node {
  name: "training/Adam/gradients/dense_2/BiasAdd_grad/BiasAddGrad"
  op: "BiasAddGrad"
  input: "training/Adam/gradients/dense_2/Softmax_grad/mul_1"
  attr {
    key: "T"
    value {
      type: DT_FLOAT
    }
  }
  attr {
    key: "_class"
    value {
      list {
        s: "loc:@dense_2/BiasAdd"
      }
    }
  }
  attr {
    key: "data_format"
    value {
      s: "NHWC"
    }
  }
}
node {
  name: "training/Adam/gradients/dense_2/MatMul_grad/MatMul"
  op: "MatMul"
  input: "training/Adam/gradients/dense_2/Softmax_grad/mul_1"
  input: "dense_2/kernel/read"
  attr {
    key: "T"
    value {
      type: DT_FLOAT
    }
  }
  attr {
    key: "_class"
    value {
      list {
        s: "loc:@dense_2/MatMul"
      }
    }
  }
  attr {
    key: "transpose_a"
    value {
      b: false
    }
  }
  attr {
    key: "transpose_b"
    value {
      b: true
    }
  }
}
node {
  name: "training/Adam/gradients/dense_2/MatMul_grad/MatMul_1"
  op: "MatMul"
  input: "dropout_1/cond/Merge"
  input: "training/Adam/gradients/dense_2/Softmax_grad/mul_1"
  attr {
    key: "T"
    value {
      type: DT_FLOAT
    }
  }
  attr {
    key: "_class"
    value {
      list {
        s: "loc:@dense_2/MatMul"
      }
    }
  }
  attr {
    key: "transpose_a"
    value {
      b: true
    }
  }
  attr {
    key: "transpose_b"
    value {
      b: false
    }
  }
}
node {
  name: "training/Adam/gradients/dropout_1/cond/Merge_grad/cond_grad"
  op: "Switch"
  input: "training/Adam/gradients/dense_2/MatMul_grad/MatMul"
  input: "dropout_1/cond/pred_id"
  attr {
    key: "T"
    value {
      type: DT_FLOAT
    }
  }
  attr {
    key: "_class"
    value {
      list {
        s: "loc:@dense_2/MatMul"
      }
    }
  }
}
node {
  name: "training/Adam/gradients/Switch"
  op: "Switch"
  input: "dense_1/Relu"
  input: "dropout_1/cond/pred_id"
  attr {
    key: "T"
    value {
      type: DT_FLOAT
    }
  }
  attr {
    key: "_class"
    value {
      list {
        s: "loc:@dense_1/Relu"
      }
    }
  }
}
node {
  name: "training/Adam/gradients/Shape_1"
  op: "Shape"
  input: "training/Adam/gradients/Switch:1"
  attr {
    key: "T"
    value {
      type: DT_FLOAT
    }
  }
  attr {
    key: "_class"
    value {
      list {
        s: "loc:@dense_1/Relu"
      }
    }
  }
  attr {
    key: "out_type"
    value {
      type: DT_INT32
    }
  }
}
node {
  name: "training/Adam/gradients/zeros/Const"
  op: "Const"
  attr {
    key: "_class"
    value {
      list {
        s: "loc:@dense_1/Relu"
      }
    }
  }
  attr {
    key: "dtype"
    value {
      type: DT_FLOAT
    }
  }
  attr {
    key: "value"
    value {
      tensor {
        dtype: DT_FLOAT
        tensor_shape {
        }
        float_val: 0.0
      }
    }
  }
}
node {
  name: "training/Adam/gradients/zeros"
  op: "Fill"
  input: "training/Adam/gradients/Shape_1"
  input: "training/Adam/gradients/zeros/Const"
  attr {
    key: "T"
    value {
      type: DT_FLOAT
    }
  }
  attr {
    key: "_class"
    value {
      list {
        s: "loc:@dense_1/Relu"
      }
    }
  }
}
node {
  name: "training/Adam/gradients/dropout_1/cond/Switch_1_grad/cond_grad"
  op: "Merge"
  input: "training/Adam/gradients/dropout_1/cond/Merge_grad/cond_grad"
  input: "training/Adam/gradients/zeros"
  attr {
    key: "N"
    value {
      i: 2
    }
  }
  attr {
    key: "T"
    value {
      type: DT_FLOAT
    }
  }
  attr {
    key: "_class"
    value {
      list {
        s: "loc:@dense_1/Relu"
      }
    }
  }
}
node {
  name: "training/Adam/gradients/dropout_1/cond/dropout/mul_grad/Shape"
  op: "Shape"
  input: "dropout_1/cond/dropout/div"
  attr {
    key: "T"
    value {
      type: DT_FLOAT
    }
  }
  attr {
    key: "_class"
    value {
      list {
        s: "loc:@dropout_1/cond/dropout/mul"
      }
    }
  }
  attr {
    key: "out_type"
    value {
      type: DT_INT32
    }
  }
}
node {
  name: "training/Adam/gradients/dropout_1/cond/dropout/mul_grad/Shape_1"
  op: "Shape"
  input: "dropout_1/cond/dropout/Floor"
  attr {
    key: "T"
    value {
      type: DT_FLOAT
    }
  }
  attr {
    key: "_class"
    value {
      list {
        s: "loc:@dropout_1/cond/dropout/mul"
      }
    }
  }
  attr {
    key: "out_type"
    value {
      type: DT_INT32
    }
  }
}
node {
  name: "training/Adam/gradients/dropout_1/cond/dropout/mul_grad/BroadcastGradientArgs"
  op: "BroadcastGradientArgs"
  input: "training/Adam/gradients/dropout_1/cond/dropout/mul_grad/Shape"
  input: "training/Adam/gradients/dropout_1/cond/dropout/mul_grad/Shape_1"
  attr {
    key: "T"
    value {
      type: DT_INT32
    }
  }
  attr {
    key: "_class"
    value {
      list {
        s: "loc:@dropout_1/cond/dropout/mul"
      }
    }
  }
}
node {
  name: "training/Adam/gradients/dropout_1/cond/dropout/mul_grad/mul"
  op: "Mul"
  input: "training/Adam/gradients/dropout_1/cond/Merge_grad/cond_grad:1"
  input: "dropout_1/cond/dropout/Floor"
  attr {
    key: "T"
    value {
      type: DT_FLOAT
    }
  }
  attr {
    key: "_class"
    value {
      list {
        s: "loc:@dropout_1/cond/dropout/mul"
      }
    }
  }
}
node {
  name: "training/Adam/gradients/dropout_1/cond/dropout/mul_grad/Sum"
  op: "Sum"
  input: "training/Adam/gradients/dropout_1/cond/dropout/mul_grad/mul"
  input: "training/Adam/gradients/dropout_1/cond/dropout/mul_grad/BroadcastGradientArgs"
  attr {
    key: "T"
    value {
      type: DT_FLOAT
    }
  }
  attr {
    key: "Tidx"
    value {
      type: DT_INT32
    }
  }
  attr {
    key: "_class"
    value {
      list {
        s: "loc:@dropout_1/cond/dropout/mul"
      }
    }
  }
  attr {
    key: "keep_dims"
    value {
      b: false
    }
  }
}
node {
  name: "training/Adam/gradients/dropout_1/cond/dropout/mul_grad/Reshape"
  op: "Reshape"
  input: "training/Adam/gradients/dropout_1/cond/dropout/mul_grad/Sum"
  input: "training/Adam/gradients/dropout_1/cond/dropout/mul_grad/Shape"
  attr {
    key: "T"
    value {
      type: DT_FLOAT
    }
  }
  attr {
    key: "Tshape"
    value {
      type: DT_INT32
    }
  }
  attr {
    key: "_class"
    value {
      list {
        s: "loc:@dropout_1/cond/dropout/mul"
      }
    }
  }
}
node {
  name: "training/Adam/gradients/dropout_1/cond/dropout/mul_grad/mul_1"
  op: "Mul"
  input: "dropout_1/cond/dropout/div"
  input: "training/Adam/gradients/dropout_1/cond/Merge_grad/cond_grad:1"
  attr {
    key: "T"
    value {
      type: DT_FLOAT
    }
  }
  attr {
    key: "_class"
    value {
      list {
        s: "loc:@dropout_1/cond/dropout/mul"
      }
    }
  }
}
node {
  name: "training/Adam/gradients/dropout_1/cond/dropout/mul_grad/Sum_1"
  op: "Sum"
  input: "training/Adam/gradients/dropout_1/cond/dropout/mul_grad/mul_1"
  input: "training/Adam/gradients/dropout_1/cond/dropout/mul_grad/BroadcastGradientArgs:1"
  attr {
    key: "T"
    value {
      type: DT_FLOAT
    }
  }
  attr {
    key: "Tidx"
    value {
      type: DT_INT32
    }
  }
  attr {
    key: "_class"
    value {
      list {
        s: "loc:@dropout_1/cond/dropout/mul"
      }
    }
  }
  attr {
    key: "keep_dims"
    value {
      b: false
    }
  }
}
node {
  name: "training/Adam/gradients/dropout_1/cond/dropout/mul_grad/Reshape_1"
  op: "Reshape"
  input: "training/Adam/gradients/dropout_1/cond/dropout/mul_grad/Sum_1"
  input: "training/Adam/gradients/dropout_1/cond/dropout/mul_grad/Shape_1"
  attr {
    key: "T"
    value {
      type: DT_FLOAT
    }
  }
  attr {
    key: "Tshape"
    value {
      type: DT_INT32
    }
  }
  attr {
    key: "_class"
    value {
      list {
        s: "loc:@dropout_1/cond/dropout/mul"
      }
    }
  }
}
node {
  name: "training/Adam/gradients/dropout_1/cond/dropout/div_grad/Shape"
  op: "Shape"
  input: "dropout_1/cond/mul"
  attr {
    key: "T"
    value {
      type: DT_FLOAT
    }
  }
  attr {
    key: "_class"
    value {
      list {
        s: "loc:@dropout_1/cond/dropout/div"
      }
    }
  }
  attr {
    key: "out_type"
    value {
      type: DT_INT32
    }
  }
}
node {
  name: "training/Adam/gradients/dropout_1/cond/dropout/div_grad/Shape_1"
  op: "Const"
  attr {
    key: "_class"
    value {
      list {
        s: "loc:@dropout_1/cond/dropout/div"
      }
    }
  }
  attr {
    key: "dtype"
    value {
      type: DT_INT32
    }
  }
  attr {
    key: "value"
    value {
      tensor {
        dtype: DT_INT32
        tensor_shape {
          dim {
          }
        }
      }
    }
  }
}
node {
  name: "training/Adam/gradients/dropout_1/cond/dropout/div_grad/BroadcastGradientArgs"
  op: "BroadcastGradientArgs"
  input: "training/Adam/gradients/dropout_1/cond/dropout/div_grad/Shape"
  input: "training/Adam/gradients/dropout_1/cond/dropout/div_grad/Shape_1"
  attr {
    key: "T"
    value {
      type: DT_INT32
    }
  }
  attr {
    key: "_class"
    value {
      list {
        s: "loc:@dropout_1/cond/dropout/div"
      }
    }
  }
}
node {
  name: "training/Adam/gradients/dropout_1/cond/dropout/div_grad/RealDiv"
  op: "RealDiv"
  input: "training/Adam/gradients/dropout_1/cond/dropout/mul_grad/Reshape"
  input: "dropout_1/cond/dropout/keep_prob"
  attr {
    key: "T"
    value {
      type: DT_FLOAT
    }
  }
  attr {
    key: "_class"
    value {
      list {
        s: "loc:@dropout_1/cond/dropout/div"
      }
    }
  }
}
node {
  name: "training/Adam/gradients/dropout_1/cond/dropout/div_grad/Sum"
  op: "Sum"
  input: "training/Adam/gradients/dropout_1/cond/dropout/div_grad/RealDiv"
  input: "training/Adam/gradients/dropout_1/cond/dropout/div_grad/BroadcastGradientArgs"
  attr {
    key: "T"
    value {
      type: DT_FLOAT
    }
  }
  attr {
    key: "Tidx"
    value {
      type: DT_INT32
    }
  }
  attr {
    key: "_class"
    value {
      list {
        s: "loc:@dropout_1/cond/dropout/div"
      }
    }
  }
  attr {
    key: "keep_dims"
    value {
      b: false
    }
  }
}
node {
  name: "training/Adam/gradients/dropout_1/cond/dropout/div_grad/Reshape"
  op: "Reshape"
  input: "training/Adam/gradients/dropout_1/cond/dropout/div_grad/Sum"
  input: "training/Adam/gradients/dropout_1/cond/dropout/div_grad/Shape"
  attr {
    key: "T"
    value {
      type: DT_FLOAT
    }
  }
  attr {
    key: "Tshape"
    value {
      type: DT_INT32
    }
  }
  attr {
    key: "_class"
    value {
      list {
        s: "loc:@dropout_1/cond/dropout/div"
      }
    }
  }
}
node {
  name: "training/Adam/gradients/dropout_1/cond/dropout/div_grad/Neg"
  op: "Neg"
  input: "dropout_1/cond/mul"
  attr {
    key: "T"
    value {
      type: DT_FLOAT
    }
  }
  attr {
    key: "_class"
    value {
      list {
        s: "loc:@dropout_1/cond/dropout/div"
      }
    }
  }
}
node {
  name: "training/Adam/gradients/dropout_1/cond/dropout/div_grad/RealDiv_1"
  op: "RealDiv"
  input: "training/Adam/gradients/dropout_1/cond/dropout/div_grad/Neg"
  input: "dropout_1/cond/dropout/keep_prob"
  attr {
    key: "T"
    value {
      type: DT_FLOAT
    }
  }
  attr {
    key: "_class"
    value {
      list {
        s: "loc:@dropout_1/cond/dropout/div"
      }
    }
  }
}
node {
  name: "training/Adam/gradients/dropout_1/cond/dropout/div_grad/RealDiv_2"
  op: "RealDiv"
  input: "training/Adam/gradients/dropout_1/cond/dropout/div_grad/RealDiv_1"
  input: "dropout_1/cond/dropout/keep_prob"
  attr {
    key: "T"
    value {
      type: DT_FLOAT
    }
  }
  attr {
    key: "_class"
    value {
      list {
        s: "loc:@dropout_1/cond/dropout/div"
      }
    }
  }
}
node {
  name: "training/Adam/gradients/dropout_1/cond/dropout/div_grad/mul"
  op: "Mul"
  input: "training/Adam/gradients/dropout_1/cond/dropout/mul_grad/Reshape"
  input: "training/Adam/gradients/dropout_1/cond/dropout/div_grad/RealDiv_2"
  attr {
    key: "T"
    value {
      type: DT_FLOAT
    }
  }
  attr {
    key: "_class"
    value {
      list {
        s: "loc:@dropout_1/cond/dropout/div"
      }
    }
  }
}
node {
  name: "training/Adam/gradients/dropout_1/cond/dropout/div_grad/Sum_1"
  op: "Sum"
  input: "training/Adam/gradients/dropout_1/cond/dropout/div_grad/mul"
  input: "training/Adam/gradients/dropout_1/cond/dropout/div_grad/BroadcastGradientArgs:1"
  attr {
    key: "T"
    value {
      type: DT_FLOAT
    }
  }
  attr {
    key: "Tidx"
    value {
      type: DT_INT32
    }
  }
  attr {
    key: "_class"
    value {
      list {
        s: "loc:@dropout_1/cond/dropout/div"
      }
    }
  }
  attr {
    key: "keep_dims"
    value {
      b: false
    }
  }
}
node {
  name: "training/Adam/gradients/dropout_1/cond/dropout/div_grad/Reshape_1"
  op: "Reshape"
  input: "training/Adam/gradients/dropout_1/cond/dropout/div_grad/Sum_1"
  input: "training/Adam/gradients/dropout_1/cond/dropout/div_grad/Shape_1"
  attr {
    key: "T"
    value {
      type: DT_FLOAT
    }
  }
  attr {
    key: "Tshape"
    value {
      type: DT_INT32
    }
  }
  attr {
    key: "_class"
    value {
      list {
        s: "loc:@dropout_1/cond/dropout/div"
      }
    }
  }
}
node {
  name: "training/Adam/gradients/dropout_1/cond/mul_grad/Shape"
  op: "Shape"
  input: "dropout_1/cond/mul/Switch:1"
  attr {
    key: "T"
    value {
      type: DT_FLOAT
    }
  }
  attr {
    key: "_class"
    value {
      list {
        s: "loc:@dropout_1/cond/mul"
      }
    }
  }
  attr {
    key: "out_type"
    value {
      type: DT_INT32
    }
  }
}
node {
  name: "training/Adam/gradients/dropout_1/cond/mul_grad/Shape_1"
  op: "Const"
  attr {
    key: "_class"
    value {
      list {
        s: "loc:@dropout_1/cond/mul"
      }
    }
  }
  attr {
    key: "dtype"
    value {
      type: DT_INT32
    }
  }
  attr {
    key: "value"
    value {
      tensor {
        dtype: DT_INT32
        tensor_shape {
          dim {
          }
        }
      }
    }
  }
}
node {
  name: "training/Adam/gradients/dropout_1/cond/mul_grad/BroadcastGradientArgs"
  op: "BroadcastGradientArgs"
  input: "training/Adam/gradients/dropout_1/cond/mul_grad/Shape"
  input: "training/Adam/gradients/dropout_1/cond/mul_grad/Shape_1"
  attr {
    key: "T"
    value {
      type: DT_INT32
    }
  }
  attr {
    key: "_class"
    value {
      list {
        s: "loc:@dropout_1/cond/mul"
      }
    }
  }
}
node {
  name: "training/Adam/gradients/dropout_1/cond/mul_grad/mul"
  op: "Mul"
  input: "training/Adam/gradients/dropout_1/cond/dropout/div_grad/Reshape"
  input: "dropout_1/cond/mul/y"
  attr {
    key: "T"
    value {
      type: DT_FLOAT
    }
  }
  attr {
    key: "_class"
    value {
      list {
        s: "loc:@dropout_1/cond/mul"
      }
    }
  }
}
node {
  name: "training/Adam/gradients/dropout_1/cond/mul_grad/Sum"
  op: "Sum"
  input: "training/Adam/gradients/dropout_1/cond/mul_grad/mul"
  input: "training/Adam/gradients/dropout_1/cond/mul_grad/BroadcastGradientArgs"
  attr {
    key: "T"
    value {
      type: DT_FLOAT
    }
  }
  attr {
    key: "Tidx"
    value {
      type: DT_INT32
    }
  }
  attr {
    key: "_class"
    value {
      list {
        s: "loc:@dropout_1/cond/mul"
      }
    }
  }
  attr {
    key: "keep_dims"
    value {
      b: false
    }
  }
}
node {
  name: "training/Adam/gradients/dropout_1/cond/mul_grad/Reshape"
  op: "Reshape"
  input: "training/Adam/gradients/dropout_1/cond/mul_grad/Sum"
  input: "training/Adam/gradients/dropout_1/cond/mul_grad/Shape"
  attr {
    key: "T"
    value {
      type: DT_FLOAT
    }
  }
  attr {
    key: "Tshape"
    value {
      type: DT_INT32
    }
  }
  attr {
    key: "_class"
    value {
      list {
        s: "loc:@dropout_1/cond/mul"
      }
    }
  }
}
node {
  name: "training/Adam/gradients/dropout_1/cond/mul_grad/mul_1"
  op: "Mul"
  input: "dropout_1/cond/mul/Switch:1"
  input: "training/Adam/gradients/dropout_1/cond/dropout/div_grad/Reshape"
  attr {
    key: "T"
    value {
      type: DT_FLOAT
    }
  }
  attr {
    key: "_class"
    value {
      list {
        s: "loc:@dropout_1/cond/mul"
      }
    }
  }
}
node {
  name: "training/Adam/gradients/dropout_1/cond/mul_grad/Sum_1"
  op: "Sum"
  input: "training/Adam/gradients/dropout_1/cond/mul_grad/mul_1"
  input: "training/Adam/gradients/dropout_1/cond/mul_grad/BroadcastGradientArgs:1"
  attr {
    key: "T"
    value {
      type: DT_FLOAT
    }
  }
  attr {
    key: "Tidx"
    value {
      type: DT_INT32
    }
  }
  attr {
    key: "_class"
    value {
      list {
        s: "loc:@dropout_1/cond/mul"
      }
    }
  }
  attr {
    key: "keep_dims"
    value {
      b: false
    }
  }
}
node {
  name: "training/Adam/gradients/dropout_1/cond/mul_grad/Reshape_1"
  op: "Reshape"
  input: "training/Adam/gradients/dropout_1/cond/mul_grad/Sum_1"
  input: "training/Adam/gradients/dropout_1/cond/mul_grad/Shape_1"
  attr {
    key: "T"
    value {
      type: DT_FLOAT
    }
  }
  attr {
    key: "Tshape"
    value {
      type: DT_INT32
    }
  }
  attr {
    key: "_class"
    value {
      list {
        s: "loc:@dropout_1/cond/mul"
      }
    }
  }
}
node {
  name: "training/Adam/gradients/Switch_1"
  op: "Switch"
  input: "dense_1/Relu"
  input: "dropout_1/cond/pred_id"
  attr {
    key: "T"
    value {
      type: DT_FLOAT
    }
  }
  attr {
    key: "_class"
    value {
      list {
        s: "loc:@dense_1/Relu"
      }
    }
  }
}
node {
  name: "training/Adam/gradients/Shape_2"
  op: "Shape"
  input: "training/Adam/gradients/Switch_1"
  attr {
    key: "T"
    value {
      type: DT_FLOAT
    }
  }
  attr {
    key: "_class"
    value {
      list {
        s: "loc:@dense_1/Relu"
      }
    }
  }
  attr {
    key: "out_type"
    value {
      type: DT_INT32
    }
  }
}
node {
  name: "training/Adam/gradients/zeros_1/Const"
  op: "Const"
  attr {
    key: "_class"
    value {
      list {
        s: "loc:@dense_1/Relu"
      }
    }
  }
  attr {
    key: "dtype"
    value {
      type: DT_FLOAT
    }
  }
  attr {
    key: "value"
    value {
      tensor {
        dtype: DT_FLOAT
        tensor_shape {
        }
        float_val: 0.0
      }
    }
  }
}
node {
  name: "training/Adam/gradients/zeros_1"
  op: "Fill"
  input: "training/Adam/gradients/Shape_2"
  input: "training/Adam/gradients/zeros_1/Const"
  attr {
    key: "T"
    value {
      type: DT_FLOAT
    }
  }
  attr {
    key: "_class"
    value {
      list {
        s: "loc:@dense_1/Relu"
      }
    }
  }
}
node {
  name: "training/Adam/gradients/dropout_1/cond/mul/Switch_grad/cond_grad"
  op: "Merge"
  input: "training/Adam/gradients/dropout_1/cond/mul_grad/Reshape"
  input: "training/Adam/gradients/zeros_1"
  attr {
    key: "N"
    value {
      i: 2
    }
  }
  attr {
    key: "T"
    value {
      type: DT_FLOAT
    }
  }
  attr {
    key: "_class"
    value {
      list {
        s: "loc:@dense_1/Relu"
      }
    }
  }
}
node {
  name: "training/Adam/gradients/AddN_1"
  op: "AddN"
  input: "training/Adam/gradients/dropout_1/cond/Switch_1_grad/cond_grad"
  input: "training/Adam/gradients/dropout_1/cond/mul/Switch_grad/cond_grad"
  attr {
    key: "N"
    value {
      i: 2
    }
  }
  attr {
    key: "T"
    value {
      type: DT_FLOAT
    }
  }
  attr {
    key: "_class"
    value {
      list {
        s: "loc:@dense_1/Relu"
      }
    }
  }
}
node {
  name: "training/Adam/gradients/dense_1/Relu_grad/ReluGrad"
  op: "ReluGrad"
  input: "training/Adam/gradients/AddN_1"
  input: "dense_1/Relu"
  attr {
    key: "T"
    value {
      type: DT_FLOAT
    }
  }
  attr {
    key: "_class"
    value {
      list {
        s: "loc:@dense_1/Relu"
      }
    }
  }
}
node {
  name: "training/Adam/gradients/dense_1/BiasAdd_grad/BiasAddGrad"
  op: "BiasAddGrad"
  input: "training/Adam/gradients/dense_1/Relu_grad/ReluGrad"
  attr {
    key: "T"
    value {
      type: DT_FLOAT
    }
  }
  attr {
    key: "_class"
    value {
      list {
        s: "loc:@dense_1/BiasAdd"
      }
    }
  }
  attr {
    key: "data_format"
    value {
      s: "NHWC"
    }
  }
}
node {
  name: "training/Adam/gradients/dense_1/MatMul_grad/MatMul"
  op: "MatMul"
  input: "training/Adam/gradients/dense_1/Relu_grad/ReluGrad"
  input: "dense_1/kernel/read"
  attr {
    key: "T"
    value {
      type: DT_FLOAT
    }
  }
  attr {
    key: "_class"
    value {
      list {
        s: "loc:@dense_1/MatMul"
      }
    }
  }
  attr {
    key: "transpose_a"
    value {
      b: false
    }
  }
  attr {
    key: "transpose_b"
    value {
      b: true
    }
  }
}
node {
  name: "training/Adam/gradients/dense_1/MatMul_grad/MatMul_1"
  op: "MatMul"
  input: "flatten_1/Reshape"
  input: "training/Adam/gradients/dense_1/Relu_grad/ReluGrad"
  attr {
    key: "T"
    value {
      type: DT_FLOAT
    }
  }
  attr {
    key: "_class"
    value {
      list {
        s: "loc:@dense_1/MatMul"
      }
    }
  }
  attr {
    key: "transpose_a"
    value {
      b: true
    }
  }
  attr {
    key: "transpose_b"
    value {
      b: false
    }
  }
}
node {
  name: "training/Adam/gradients/flatten_1/Reshape_grad/Shape"
  op: "Shape"
  input: "max_pooling2d_2/MaxPool"
  attr {
    key: "T"
    value {
      type: DT_FLOAT
    }
  }
  attr {
    key: "_class"
    value {
      list {
        s: "loc:@flatten_1/Reshape"
      }
    }
  }
  attr {
    key: "out_type"
    value {
      type: DT_INT32
    }
  }
}
node {
  name: "training/Adam/gradients/flatten_1/Reshape_grad/Reshape"
  op: "Reshape"
  input: "training/Adam/gradients/dense_1/MatMul_grad/MatMul"
  input: "training/Adam/gradients/flatten_1/Reshape_grad/Shape"
  attr {
    key: "T"
    value {
      type: DT_FLOAT
    }
  }
  attr {
    key: "Tshape"
    value {
      type: DT_INT32
    }
  }
  attr {
    key: "_class"
    value {
      list {
        s: "loc:@flatten_1/Reshape"
      }
    }
  }
}
node {
  name: "training/Adam/gradients/max_pooling2d_2/MaxPool_grad/MaxPoolGrad"
  op: "MaxPoolGrad"
  input: "conv2d_2/Relu"
  input: "max_pooling2d_2/MaxPool"
  input: "training/Adam/gradients/flatten_1/Reshape_grad/Reshape"
  attr {
    key: "T"
    value {
      type: DT_FLOAT
    }
  }
  attr {
    key: "_class"
    value {
      list {
        s: "loc:@max_pooling2d_2/MaxPool"
      }
    }
  }
  attr {
    key: "data_format"
    value {
      s: "NHWC"
    }
  }
  attr {
    key: "ksize"
    value {
      list {
        i: 1
        i: 3
        i: 3
        i: 1
      }
    }
  }
  attr {
    key: "padding"
    value {
      s: "VALID"
    }
  }
  attr {
    key: "strides"
    value {
      list {
        i: 1
        i: 3
        i: 3
        i: 1
      }
    }
  }
}
node {
  name: "training/Adam/gradients/conv2d_2/Relu_grad/ReluGrad"
  op: "ReluGrad"
  input: "training/Adam/gradients/max_pooling2d_2/MaxPool_grad/MaxPoolGrad"
  input: "conv2d_2/Relu"
  attr {
    key: "T"
    value {
      type: DT_FLOAT
    }
  }
  attr {
    key: "_class"
    value {
      list {
        s: "loc:@conv2d_2/Relu"
      }
    }
  }
}
node {
  name: "training/Adam/gradients/conv2d_2/BiasAdd_grad/BiasAddGrad"
  op: "BiasAddGrad"
  input: "training/Adam/gradients/conv2d_2/Relu_grad/ReluGrad"
  attr {
    key: "T"
    value {
      type: DT_FLOAT
    }
  }
  attr {
    key: "_class"
    value {
      list {
        s: "loc:@conv2d_2/BiasAdd"
      }
    }
  }
  attr {
    key: "data_format"
    value {
      s: "NHWC"
    }
  }
}
node {
  name: "training/Adam/gradients/conv2d_2/convolution_grad/ShapeN"
  op: "ShapeN"
  input: "max_pooling2d_1/MaxPool"
  input: "conv2d_2/kernel/read"
  attr {
    key: "N"
    value {
      i: 2
    }
  }
  attr {
    key: "T"
    value {
      type: DT_FLOAT
    }
  }
  attr {
    key: "_class"
    value {
      list {
        s: "loc:@conv2d_2/convolution"
      }
    }
  }
  attr {
    key: "out_type"
    value {
      type: DT_INT32
    }
  }
}
node {
  name: "training/Adam/gradients/conv2d_2/convolution_grad/Conv2DBackpropInput"
  op: "Conv2DBackpropInput"
  input: "training/Adam/gradients/conv2d_2/convolution_grad/ShapeN"
  input: "conv2d_2/kernel/read"
  input: "training/Adam/gradients/conv2d_2/Relu_grad/ReluGrad"
  attr {
    key: "T"
    value {
      type: DT_FLOAT
    }
  }
  attr {
    key: "_class"
    value {
      list {
        s: "loc:@conv2d_2/convolution"
      }
    }
  }
  attr {
    key: "data_format"
    value {
      s: "NHWC"
    }
  }
  attr {
    key: "padding"
    value {
      s: "VALID"
    }
  }
  attr {
    key: "strides"
    value {
      list {
        i: 1
        i: 1
        i: 1
        i: 1
      }
    }
  }
  attr {
    key: "use_cudnn_on_gpu"
    value {
      b: true
    }
  }
}
node {
  name: "training/Adam/gradients/conv2d_2/convolution_grad/Conv2DBackpropFilter"
  op: "Conv2DBackpropFilter"
  input: "max_pooling2d_1/MaxPool"
  input: "training/Adam/gradients/conv2d_2/convolution_grad/ShapeN:1"
  input: "training/Adam/gradients/conv2d_2/Relu_grad/ReluGrad"
  attr {
    key: "T"
    value {
      type: DT_FLOAT
    }
  }
  attr {
    key: "_class"
    value {
      list {
        s: "loc:@conv2d_2/convolution"
      }
    }
  }
  attr {
    key: "data_format"
    value {
      s: "NHWC"
    }
  }
  attr {
    key: "padding"
    value {
      s: "VALID"
    }
  }
  attr {
    key: "strides"
    value {
      list {
        i: 1
        i: 1
        i: 1
        i: 1
      }
    }
  }
  attr {
    key: "use_cudnn_on_gpu"
    value {
      b: true
    }
  }
}
node {
  name: "training/Adam/gradients/max_pooling2d_1/MaxPool_grad/MaxPoolGrad"
  op: "MaxPoolGrad"
  input: "conv2d_1/Relu"
  input: "max_pooling2d_1/MaxPool"
  input: "training/Adam/gradients/conv2d_2/convolution_grad/Conv2DBackpropInput"
  attr {
    key: "T"
    value {
      type: DT_FLOAT
    }
  }
  attr {
    key: "_class"
    value {
      list {
        s: "loc:@max_pooling2d_1/MaxPool"
      }
    }
  }
  attr {
    key: "data_format"
    value {
      s: "NHWC"
    }
  }
  attr {
    key: "ksize"
    value {
      list {
        i: 1
        i: 3
        i: 3
        i: 1
      }
    }
  }
  attr {
    key: "padding"
    value {
      s: "VALID"
    }
  }
  attr {
    key: "strides"
    value {
      list {
        i: 1
        i: 3
        i: 3
        i: 1
      }
    }
  }
}
node {
  name: "training/Adam/gradients/conv2d_1/Relu_grad/ReluGrad"
  op: "ReluGrad"
  input: "training/Adam/gradients/max_pooling2d_1/MaxPool_grad/MaxPoolGrad"
  input: "conv2d_1/Relu"
  attr {
    key: "T"
    value {
      type: DT_FLOAT
    }
  }
  attr {
    key: "_class"
    value {
      list {
        s: "loc:@conv2d_1/Relu"
      }
    }
  }
}
node {
  name: "training/Adam/gradients/conv2d_1/BiasAdd_grad/BiasAddGrad"
  op: "BiasAddGrad"
  input: "training/Adam/gradients/conv2d_1/Relu_grad/ReluGrad"
  attr {
    key: "T"
    value {
      type: DT_FLOAT
    }
  }
  attr {
    key: "_class"
    value {
      list {
        s: "loc:@conv2d_1/BiasAdd"
      }
    }
  }
  attr {
    key: "data_format"
    value {
      s: "NHWC"
    }
  }
}
node {
  name: "training/Adam/gradients/conv2d_1/convolution_grad/ShapeN"
  op: "ShapeN"
  input: "conv2d_1_input"
  input: "conv2d_1/kernel/read"
  attr {
    key: "N"
    value {
      i: 2
    }
  }
  attr {
    key: "T"
    value {
      type: DT_FLOAT
    }
  }
  attr {
    key: "_class"
    value {
      list {
        s: "loc:@conv2d_1/convolution"
      }
    }
  }
  attr {
    key: "out_type"
    value {
      type: DT_INT32
    }
  }
}
node {
  name: "training/Adam/gradients/conv2d_1/convolution_grad/Conv2DBackpropInput"
  op: "Conv2DBackpropInput"
  input: "training/Adam/gradients/conv2d_1/convolution_grad/ShapeN"
  input: "conv2d_1/kernel/read"
  input: "training/Adam/gradients/conv2d_1/Relu_grad/ReluGrad"
  attr {
    key: "T"
    value {
      type: DT_FLOAT
    }
  }
  attr {
    key: "_class"
    value {
      list {
        s: "loc:@conv2d_1/convolution"
      }
    }
  }
  attr {
    key: "data_format"
    value {
      s: "NHWC"
    }
  }
  attr {
    key: "padding"
    value {
      s: "VALID"
    }
  }
  attr {
    key: "strides"
    value {
      list {
        i: 1
        i: 1
        i: 1
        i: 1
      }
    }
  }
  attr {
    key: "use_cudnn_on_gpu"
    value {
      b: true
    }
  }
}
node {
  name: "training/Adam/gradients/conv2d_1/convolution_grad/Conv2DBackpropFilter"
  op: "Conv2DBackpropFilter"
  input: "conv2d_1_input"
  input: "training/Adam/gradients/conv2d_1/convolution_grad/ShapeN:1"
  input: "training/Adam/gradients/conv2d_1/Relu_grad/ReluGrad"
  attr {
    key: "T"
    value {
      type: DT_FLOAT
    }
  }
  attr {
    key: "_class"
    value {
      list {
        s: "loc:@conv2d_1/convolution"
      }
    }
  }
  attr {
    key: "data_format"
    value {
      s: "NHWC"
    }
  }
  attr {
    key: "padding"
    value {
      s: "VALID"
    }
  }
  attr {
    key: "strides"
    value {
      list {
        i: 1
        i: 1
        i: 1
        i: 1
      }
    }
  }
  attr {
    key: "use_cudnn_on_gpu"
    value {
      b: true
    }
  }
}
node {
  name: "training/Adam/AssignAdd/value"
  op: "Const"
  attr {
    key: "dtype"
    value {
      type: DT_INT64
    }
  }
  attr {
    key: "value"
    value {
      tensor {
        dtype: DT_INT64
        tensor_shape {
        }
        int64_val: 1
      }
    }
  }
}
node {
  name: "training/Adam/AssignAdd"
  op: "AssignAdd"
  input: "Adam/iterations"
  input: "training/Adam/AssignAdd/value"
  attr {
    key: "T"
    value {
      type: DT_INT64
    }
  }
…
  }
}
node {
  name: "IsVariableInitialized_17"
  op: "IsVariableInitialized"
  input: "training/Adam/Variable_4"
  attr {
    key: "_class"
    value {
      list {
        s: "loc:@training/Adam/Variable_4"
      }
    }
  }
  attr {
    key: "dtype"
    value {
      type: DT_FLOAT
    }
  }
}
node {
  name: "IsVariableInitialized_18"
  op: "IsVariableInitialized"
  input: "training/Adam/Variable_5"
  attr {
    key: "_class"
    value {
      list {
        s: "loc:@training/Adam/Variable_5"
      }
    }
  }
  attr {
    key: "dtype"
    value {
      type: DT_FLOAT
    }
  }
}
node {
  name: "IsVariableInitialized_19"
  op: "IsVariableInitialized"
  input: "training/Adam/Variable_6"
  attr {
    key: "_class"
    value {
      list {
        s: "loc:@training/Adam/Variable_6"
      }
    }
  }
  attr {
    key: "dtype"
    value {
      type: DT_FLOAT
    }
  }
}
node {
  name: "IsVariableInitialized_20"
  op: "IsVariableInitialized"
  input: "training/Adam/Variable_7"
  attr {
    key: "_class"
    value {
      list {
        s: "loc:@training/Adam/Variable_7"
      }
    }
  }
  attr {
    key: "dtype"
    value {
      type: DT_FLOAT
    }
  }
}
node {
  name: "IsVariableInitialized_21"
  op: "IsVariableInitialized"
  input: "training/Adam/Variable_8"
  attr {
    key: "_class"
    value {
      list {
        s: "loc:@training/Adam/Variable_8"
      }
    }
  }
  attr {
    key: "dtype"
    value {
      type: DT_FLOAT
    }
  }
}
node {
  name: "IsVariableInitialized_22"
  op: "IsVariableInitialized"
  input: "training/Adam/Variable_9"
  attr {
    key: "_class"
    value {
      list {
        s: "loc:@training/Adam/Variable_9"
      }
    }
  }
  attr {
    key: "dtype"
    value {
      type: DT_FLOAT
    }
  }
}
node {
  name: "IsVariableInitialized_23"
  op: "IsVariableInitialized"
  input: "training/Adam/Variable_10"
  attr {
    key: "_class"
    value {
      list {
        s: "loc:@training/Adam/Variable_10"
      }
    }
  }
  attr {
    key: "dtype"
    value {
      type: DT_FLOAT
    }
  }
}
node {
  name: "IsVariableInitialized_24"
  op: "IsVariableInitialized"
  input: "training/Adam/Variable_11"
  attr {
    key: "_class"
    value {
      list {
        s: "loc:@training/Adam/Variable_11"
      }
    }
  }
  attr {
    key: "dtype"
    value {
      type: DT_FLOAT
    }
  }
}
node {
  name: "IsVariableInitialized_25"
  op: "IsVariableInitialized"
  input: "training/Adam/Variable_12"
  attr {
    key: "_class"
    value {
      list {
        s: "loc:@training/Adam/Variable_12"
      }
    }
  }
  attr {
    key: "dtype"
    value {
      type: DT_FLOAT
    }
  }
}
node {
  name: "IsVariableInitialized_26"
  op: "IsVariableInitialized"
  input: "training/Adam/Variable_13"
  attr {
    key: "_class"
    value {
      list {
        s: "loc:@training/Adam/Variable_13"
      }
    }
  }
  attr {
    key: "dtype"
    value {
      type: DT_FLOAT
    }
  }
}
node {
  name: "IsVariableInitialized_27"
  op: "IsVariableInitialized"
  input: "training/Adam/Variable_14"
  attr {
    key: "_class"
    value {
      list {
        s: "loc:@training/Adam/Variable_14"
      }
    }
  }
  attr {
    key: "dtype"
    value {
      type: DT_FLOAT
    }
  }
}
node {
  name: "IsVariableInitialized_28"
  op: "IsVariableInitialized"
  input: "training/Adam/Variable_15"
  attr {
    key: "_class"
    value {
      list {
        s: "loc:@training/Adam/Variable_15"
      }
    }
  }
  attr {
    key: "dtype"
    value {
      type: DT_FLOAT
    }
  }
}
node {
  name: "init"
  op: "NoOp"
  input: "^conv2d_1/kernel/Assign"
  input: "^conv2d_1/bias/Assign"
  input: "^conv2d_2/kernel/Assign"
  input: "^conv2d_2/bias/Assign"
  input: "^dense_1/kernel/Assign"
  input: "^dense_1/bias/Assign"
  input: "^dense_2/kernel/Assign"
  input: "^dense_2/bias/Assign"
  input: "^Adam/iterations/Assign"
  input: "^Adam/lr/Assign"
  input: "^Adam/beta_1/Assign"
  input: "^Adam/beta_2/Assign"
  input: "^Adam/decay/Assign"
  input: "^training/Adam/Variable/Assign"
  input: "^training/Adam/Variable_1/Assign"
  input: "^training/Adam/Variable_2/Assign"
  input: "^training/Adam/Variable_3/Assign"
  input: "^training/Adam/Variable_4/Assign"
  input: "^training/Adam/Variable_5/Assign"
  input: "^training/Adam/Variable_6/Assign"
  input: "^training/Adam/Variable_7/Assign"
  input: "^training/Adam/Variable_8/Assign"
  input: "^training/Adam/Variable_9/Assign"
  input: "^training/Adam/Variable_10/Assign"
  input: "^training/Adam/Variable_11/Assign"
  input: "^training/Adam/Variable_12/Assign"
  input: "^training/Adam/Variable_13/Assign"
  input: "^training/Adam/Variable_14/Assign"
  input: "^training/Adam/Variable_15/Assign"
}
node {
  name: "save/Const"
  op: "Const"
  attr {
    key: "dtype"
    value {
      type: DT_STRING
    }
  }
  attr {
    key: "value"
    value {
      tensor {
        dtype: DT_STRING
        tensor_shape {
        }
        string_val: "model"
      }
    }
  }
}
node {
  name: "save/SaveV2/tensor_names"
  op: "Const"
  attr {
    key: "dtype"
    value {
      type: DT_STRING
    }
  }
  attr {
    key: "value"
    value {
      tensor {
        dtype: DT_STRING
        tensor_shape {
          dim {
            size: 29
          }
        }
        string_val: "Adam/beta_1"
        string_val: "Adam/beta_2"
        string_val: "Adam/decay"
        string_val: "Adam/iterations"
        string_val: "Adam/lr"
        string_val: "conv2d_1/bias"
        string_val: "conv2d_1/kernel"
        string_val: "conv2d_2/bias"
        string_val: "conv2d_2/kernel"
        string_val: "dense_1/bias"
        string_val: "dense_1/kernel"
        string_val: "dense_2/bias"
        string_val: "dense_2/kernel"
        string_val: "training/Adam/Variable"
        string_val: "training/Adam/Variable_1"
        string_val: "training/Adam/Variable_10"
        string_val: "training/Adam/Variable_11"
        string_val: "training/Adam/Variable_12"
        string_val: "training/Adam/Variable_13"
        string_val: "training/Adam/Variable_14"
        string_val: "training/Adam/Variable_15"
        string_val: "training/Adam/Variable_2"
        string_val: "training/Adam/Variable_3"
        string_val: "training/Adam/Variable_4"
        string_val: "training/Adam/Variable_5"
        string_val: "training/Adam/Variable_6"
        string_val: "training/Adam/Variable_7"
        string_val: "training/Adam/Variable_8"
        string_val: "training/Adam/Variable_9"
      }
    }
  }
}
node {
  name: "save/SaveV2/shape_and_slices"
  op: "Const"
  attr {
    key: "dtype"
    value {
      type: DT_STRING
    }
  }
  attr {
    key: "value"
    value {
      tensor {
        dtype: DT_STRING
        tensor_shape {
          dim {
            size: 29
          }
        }
        string_val: ""
        string_val: ""
        string_val: ""
        string_val: ""
        string_val: ""
        string_val: ""
        string_val: ""
        string_val: ""
        string_val: ""
        string_val: ""
        string_val: ""
        string_val: ""
        string_val: ""
        string_val: ""
        string_val: ""
        string_val: ""
        string_val: ""
        string_val: ""
        string_val: ""
        string_val: ""
        string_val: ""
        string_val: ""
        string_val: ""
        string_val: ""
        string_val: ""
        string_val: ""
        string_val: ""
        string_val: ""
        string_val: ""
      }
    }
  }
}
node {
  name: "save/SaveV2"
  op: "SaveV2"
  input: "save/Const"
  input: "save/SaveV2/tensor_names"
  input: "save/SaveV2/shape_and_slices"
  input: "Adam/beta_1"
  input: "Adam/beta_2"
  input: "Adam/decay"
  input: "Adam/iterations"
  input: "Adam/lr"
  input: "conv2d_1/bias"
  input: "conv2d_1/kernel"
  input: "conv2d_2/bias"
  input: "conv2d_2/kernel"
  input: "dense_1/bias"
  input: "dense_1/kernel"
  input: "dense_2/bias"
  input: "dense_2/kernel"
  input: "training/Adam/Variable"
  input: "training/Adam/Variable_1"
  input: "training/Adam/Variable_10"
  input: "training/Adam/Variable_11"
  input: "training/Adam/Variable_12"
  input: "training/Adam/Variable_13"
  input: "training/Adam/Variable_14"
  input: "training/Adam/Variable_15"
  input: "training/Adam/Variable_2"
  input: "training/Adam/Variable_3"
  input: "training/Adam/Variable_4"
  input: "training/Adam/Variable_5"
  input: "training/Adam/Variable_6"
  input: "training/Adam/Variable_7"
  input: "training/Adam/Variable_8"
  input: "training/Adam/Variable_9"
  attr {
    key: "dtypes"
    value {
      list {
        type: DT_FLOAT
        type: DT_FLOAT
        type: DT_FLOAT
        type: DT_INT64
        type: DT_FLOAT
        type: DT_FLOAT
        type: DT_FLOAT
        type: DT_FLOAT
        type: DT_FLOAT
        type: DT_FLOAT
        type: DT_FLOAT
        type: DT_FLOAT
        type: DT_FLOAT
        type: DT_FLOAT
        type: DT_FLOAT
        type: DT_FLOAT
        type: DT_FLOAT
        type: DT_FLOAT
        type: DT_FLOAT
        type: DT_FLOAT
        type: DT_FLOAT
        type: DT_FLOAT
        type: DT_FLOAT
        type: DT_FLOAT
        type: DT_FLOAT
        type: DT_FLOAT
        type: DT_FLOAT
        type: DT_FLOAT
        type: DT_FLOAT
      }
    }
  }
}
node {
  name: "save/control_dependency"
  op: "Identity"
  input: "save/Const"
  input: "^save/SaveV2"
  attr {
    key: "T"
    value {
      type: DT_STRING
    }
  }
  attr {
    key: "_class"
    value {
      list {
        s: "loc:@save/Const"
      }
    }
  }
}
node {
  name: "save/RestoreV2/tensor_names"
  op: "Const"
  attr {
    key: "dtype"
    value {
      type: DT_STRING
    }
  }
  attr {
    key: "value"
    value {
      tensor {
        dtype: DT_STRING
        tensor_shape {
          dim {
            size: 1
          }
        }
        string_val: "Adam/beta_1"
      }
    }
  }
}
node {
  name: "save/RestoreV2/shape_and_slices"
  op: "Const"
  attr {
    key: "dtype"
    value {
      type: DT_STRING
    }
  }
  attr {
    key: "value"
    value {
      tensor {
        dtype: DT_STRING
        tensor_shape {
          dim {
            size: 1
          }
        }
        string_val: ""
      }
    }
  }
}
node {
  name: "save/RestoreV2"
  op: "RestoreV2"
  input: "save/Const"
  input: "save/RestoreV2/tensor_names"
  input: "save/RestoreV2/shape_and_slices"
  attr {
    key: "dtypes"
    value {
      list {
        type: DT_FLOAT
      }
    }
  }
}
node {
  name: "save/Assign"
  op: "Assign"
  input: "Adam/beta_1"
  input: "save/RestoreV2"
  attr {
    key: "T"
    value {
      type: DT_FLOAT
    }
  }
  attr {
    key: "_class"
    value {
      list {
        s: "loc:@Adam/beta_1"
      }
    }
  }
  attr {
    key: "use_locking"
    value {
      b: true
    }
  }
  attr {
    key: "validate_shape"
    value {
      b: true
    }
  }
}
node {
  name: "save/RestoreV2_1/tensor_names"
  op: "Const"
  attr {
    key: "dtype"
    value {
      type: DT_STRING
    }
  }
  attr {
    key: "value"
    value {
      tensor {
        dtype: DT_STRING
        tensor_shape {
          dim {
            size: 1
          }
        }
        string_val: "Adam/beta_2"
      }
    }
  }
}
node {
  name: "save/RestoreV2_1/shape_and_slices"
  op: "Const"
  attr {
    key: "dtype"
    value {
      type: DT_STRING
    }
  }
  attr {
    key: "value"
    value {
      tensor {
        dtype: DT_STRING
        tensor_shape {
          dim {
            size: 1
          }
        }
        string_val: ""
      }
    }
  }
}
node {
  name: "save/RestoreV2_1"
  op: "RestoreV2"
  input: "save/Const"
  input: "save/RestoreV2_1/tensor_names"
  input: "save/RestoreV2_1/shape_and_slices"
  attr {
    key: "dtypes"
    value {
      list {
        type: DT_FLOAT
      }
    }
  }
}
node {
  name: "save/Assign_1"
  op: "Assign"
  input: "Adam/beta_2"
  input: "save/RestoreV2_1"
  attr {
    key: "T"
    value {
      type: DT_FLOAT
    }
  }
  attr {
    key: "_class"
    value {
      list {
        s: "loc:@Adam/beta_2"
      }
    }
  }
  attr {
    key: "use_locking"
    value {
      b: true
    }
  }
  attr {
    key: "validate_shape"
    value {
      b: true
    }
  }
}
node {
  name: "save/RestoreV2_2/tensor_names"
  op: "Const"
  attr {
    key: "dtype"
    value {
      type: DT_STRING
    }
  }
  attr {
    key: "value"
    value {
      tensor {
        dtype: DT_STRING
        tensor_shape {
          dim {
            size: 1
          }
        }
        string_val: "Adam/decay"
      }
    }
  }
}
node {
  name: "save/RestoreV2_2/shape_and_slices"
  op: "Const"
  attr {
    key: "dtype"
    value {
      type: DT_STRING
    }
  }
  attr {
    key: "value"
    value {
      tensor {
        dtype: DT_STRING
        tensor_shape {
          dim {
            size: 1
          }
        }
        string_val: ""
      }
    }
  }
}
node {
  name: "save/RestoreV2_2"
  op: "RestoreV2"
  input: "save/Const"
  input: "save/RestoreV2_2/tensor_names"
  input: "save/RestoreV2_2/shape_and_slices"
  attr {
    key: "dtypes"
    value {
      list {
        type: DT_FLOAT
      }
    }
  }
}
node {
  name: "save/Assign_2"
  op: "Assign"
  input: "Adam/decay"
  input: "save/RestoreV2_2"
  attr {
    key: "T"
    value {
      type: DT_FLOAT
    }
  }
  attr {
    key: "_class"
    value {
      list {
        s: "loc:@Adam/decay"
      }
    }
  }
  attr {
    key: "use_locking"
    value {
      b: true
    }
  }
  attr {
    key: "validate_shape"
    value {
      b: true
    }
  }
}
node {
  name: "save/RestoreV2_3/tensor_names"
  op: "Const"
  attr {
    key: "dtype"
    value {
      type: DT_STRING
    }
  }
  attr {
    key: "value"
    value {
      tensor {
        dtype: DT_STRING
        tensor_shape {
          dim {
            size: 1
          }
        }
        string_val: "Adam/iterations"
      }
    }
  }
}
node {
  name: "save/RestoreV2_3/shape_and_slices"
  op: "Const"
  attr {
    key: "dtype"
    value {
      type: DT_STRING
    }
  }
  attr {
    key: "value"
    value {
      tensor {
        dtype: DT_STRING
        tensor_shape {
          dim {
            size: 1
          }
        }
        string_val: ""
      }
    }
  }
}
node {
  name: "save/RestoreV2_3"
  op: "RestoreV2"
  input: "save/Const"
  input: "save/RestoreV2_3/tensor_names"
  input: "save/RestoreV2_3/shape_and_slices"
  attr {
    key: "dtypes"
    value {
      list {
        type: DT_INT64
      }
    }
  }
}
node {
  name: "save/Assign_3"
  op: "Assign"
  input: "Adam/iterations"
  input: "save/RestoreV2_3"
  attr {
    key: "T"
    value {
      type: DT_INT64
    }
  }
  attr {
    key: "_class"
    value {
      list {
        s: "loc:@Adam/iterations"
      }
    }
  }
  attr {
    key: "use_locking"
    value {
      b: true
    }
  }
  attr {
    key: "validate_shape"
    value {
      b: true
    }
  }
}
node {
  name: "save/RestoreV2_4/tensor_names"
  op: "Const"
  attr {
    key: "dtype"
    value {
      type: DT_STRING
    }
  }
  attr {
    key: "value"
    value {
      tensor {
        dtype: DT_STRING
        tensor_shape {
          dim {
            size: 1
          }
        }
        string_val: "Adam/lr"
      }
    }
  }
}
node {
  name: "save/RestoreV2_4/shape_and_slices"
  op: "Const"
  attr {
    key: "dtype"
    value {
      type: DT_STRING
    }
  }
  attr {
    key: "value"
    value {
      tensor {
        dtype: DT_STRING
        tensor_shape {
          dim {
            size: 1
          }
        }
        string_val: ""
      }
    }
  }
}
node {
  name: "save/RestoreV2_4"
  op: "RestoreV2"
  input: "save/Const"
  input: "save/RestoreV2_4/tensor_names"
  input: "save/RestoreV2_4/shape_and_slices"
  attr {
    key: "dtypes"
    value {
      list {
        type: DT_FLOAT
      }
    }
  }
}
node {
  name: "save/Assign_4"
  op: "Assign"
  input: "Adam/lr"
  input: "save/RestoreV2_4"
  attr {
    key: "T"
    value {
      type: DT_FLOAT
    }
  }
  attr {
    key: "_class"
    value {
      list {
        s: "loc:@Adam/lr"
      }
    }
  }
  attr {
    key: "use_locking"
    value {
      b: true
    }
  }
  attr {
    key: "validate_shape"
    value {
      b: true
    }
  }
}
node {
  name: "save/RestoreV2_5/tensor_names"
  op: "Const"
  attr {
    key: "dtype"
    value {
      type: DT_STRING
    }
  }
  attr {
    key: "value"
    value {
      tensor {
        dtype: DT_STRING
        tensor_shape {
          dim {
            size: 1
          }
        }
        string_val: "conv2d_1/bias"
      }
    }
  }
}
node {
  name: "save/RestoreV2_5/shape_and_slices"
  op: "Const"
  attr {
    key: "dtype"
    value {
      type: DT_STRING
    }
  }
  attr {
    key: "value"
    value {
      tensor {
        dtype: DT_STRING
        tensor_shape {
          dim {
            size: 1
          }
        }
        string_val: ""
      }
    }
  }
}
node {
  name: "save/RestoreV2_5"
  op: "RestoreV2"
  input: "save/Const"
  input: "save/RestoreV2_5/tensor_names"
  input: "save/RestoreV2_5/shape_and_slices"
  attr {
    key: "dtypes"
    value {
      list {
        type: DT_FLOAT
      }
    }
  }
}
node {
  name: "save/Assign_5"
  op: "Assign"
  input: "conv2d_1/bias"
  input: "save/RestoreV2_5"
  attr {
    key: "T"
    value {
      type: DT_FLOAT
    }
  }
  attr {
    key: "_class"
    value {
      list {
        s: "loc:@conv2d_1/bias"
      }
    }
  }
  attr {
    key: "use_locking"
    value {
      b: true
    }
  }
  attr {
    key: "validate_shape"
    value {
      b: true
    }
  }
}
node {
  name: "save/RestoreV2_6/tensor_names"
  op: "Const"
  attr {
    key: "dtype"
    value {
      type: DT_STRING
    }
  }
  attr {
    key: "value"
    value {
      tensor {
        dtype: DT_STRING
        tensor_shape {
          dim {
            size: 1
          }
        }
        string_val: "conv2d_1/kernel"
      }
    }
  }
}
node {
  name: "save/RestoreV2_6/shape_and_slices"
  op: "Const"
  attr {
    key: "dtype"
    value {
      type: DT_STRING
    }
  }
  attr {
    key: "value"
    value {
      tensor {
        dtype: DT_STRING
        tensor_shape {
          dim {
            size: 1
          }
        }
        string_val: ""
      }
    }
  }
}
node {
  name: "save/RestoreV2_6"
  op: "RestoreV2"
  input: "save/Const"
  input: "save/RestoreV2_6/tensor_names"
  input: "save/RestoreV2_6/shape_and_slices"
  attr {
    key: "dtypes"
    value {
      list {
        type: DT_FLOAT
      }
    }
  }
}
node {
  name: "save/Assign_6"
  op: "Assign"
  input: "conv2d_1/kernel"
  input: "save/RestoreV2_6"
  attr {
    key: "T"
    value {
      type: DT_FLOAT
    }
  }
  attr {
    key: "_class"
    value {
      list {
        s: "loc:@conv2d_1/kernel"
      }
    }
  }
  attr {
    key: "use_locking"
    value {
      b: true
    }
  }
  attr {
    key: "validate_shape"
    value {
      b: true
    }
  }
}
node {
  name: "save/RestoreV2_7/tensor_names"
  op: "Const"
  attr {
    key: "dtype"
    value {
      type: DT_STRING
    }
  }
  attr {
    key: "value"
    value {
      tensor {
        dtype: DT_STRING
        tensor_shape {
          dim {
            size: 1
          }
        }
        string_val: "conv2d_2/bias"
      }
    }
  }
}
node {
  name: "save/RestoreV2_7/shape_and_slices"
  op: "Const"
  attr {
    key: "dtype"
    value {
      type: DT_STRING
    }
  }
  attr {
    key: "value"
    value {
      tensor {
        dtype: DT_STRING
        tensor_shape {
          dim {
            size: 1
          }
        }
        string_val: ""
      }
    }
  }
}
node {
  name: "save/RestoreV2_7"
  op: "RestoreV2"
  input: "save/Const"
  input: "save/RestoreV2_7/tensor_names"
  input: "save/RestoreV2_7/shape_and_slices"
  attr {
    key: "dtypes"
    value {
      list {
        type: DT_FLOAT
      }
    }
  }
}
node {
  name: "save/Assign_7"
  op: "Assign"
  input: "conv2d_2/bias"
  input: "save/RestoreV2_7"
  attr {
    key: "T"
    value {
      type: DT_FLOAT
    }
  }
  attr {
    key: "_class"
    value {
      list {
        s: "loc:@conv2d_2/bias"
      }
    }
  }
  attr {
    key: "use_locking"
    value {
      b: true
    }
  }
  attr {
    key: "validate_shape"
    value {
      b: true
    }
  }
}
node {
  name: "save/RestoreV2_8/tensor_names"
  op: "Const"
  attr {
    key: "dtype"
    value {
      type: DT_STRING
    }
  }
  attr {
    key: "value"
    value {
      tensor {
        dtype: DT_STRING
        tensor_shape {
          dim {
            size: 1
          }
        }
        string_val: "conv2d_2/kernel"
      }
    }
  }
}
node {
  name: "save/RestoreV2_8/shape_and_slices"
  op: "Const"
  attr {
    key: "dtype"
    value {
      type: DT_STRING
    }
  }
  attr {
    key: "value"
    value {
      tensor {
        dtype: DT_STRING
        tensor_shape {
          dim {
            size: 1
          }
        }
        string_val: ""
      }
    }
  }
}
node {
  name: "save/RestoreV2_8"
  op: "RestoreV2"
  input: "save/Const"
  input: "save/RestoreV2_8/tensor_names"
  input: "save/RestoreV2_8/shape_and_slices"
  attr {
    key: "dtypes"
    value {
      list {
        type: DT_FLOAT
      }
    }
  }
}
node {
  name: "save/Assign_8"
  op: "Assign"
  input: "conv2d_2/kernel"
  input: "save/RestoreV2_8"
  attr {
    key: "T"
    value {
      type: DT_FLOAT
    }
  }
  attr {
    key: "_class"
    value {
      list {
        s: "loc:@conv2d_2/kernel"
      }
    }
  }
  attr {
    key: "use_locking"
    value {
      b: true
    }
  }
  attr {
    key: "validate_shape"
    value {
      b: true
    }
  }
}
node {
  name: "save/RestoreV2_9/tensor_names"
  op: "Const"
  attr {
    key: "dtype"
    value {
      type: DT_STRING
    }
  }
  attr {
    key: "value"
    value {
      tensor {
        dtype: DT_STRING
        tensor_shape {
          dim {
            size: 1
          }
        }
        string_val: "dense_1/bias"
      }
    }
  }
}
node {
  name: "save/RestoreV2_9/shape_and_slices"
  op: "Const"
  attr {
    key: "dtype"
    value {
      type: DT_STRING
    }
  }
  attr {
    key: "value"
    value {
      tensor {
        dtype: DT_STRING
        tensor_shape {
          dim {
            size: 1
          }
        }
        string_val: ""
      }
    }
  }
}
node {
  name: "save/RestoreV2_9"
  op: "RestoreV2"
  input: "save/Const"
  input: "save/RestoreV2_9/tensor_names"
  input: "save/RestoreV2_9/shape_and_slices"
  attr {
    key: "dtypes"
    value {
      list {
        type: DT_FLOAT
      }
    }
  }
}
node {
  name: "save/Assign_9"
  op: "Assign"
  input: "dense_1/bias"
  input: "save/RestoreV2_9"
  attr {
    key: "T"
    value {
      type: DT_FLOAT
    }
  }
  attr {
    key: "_class"
    value {
      list {
        s: "loc:@dense_1/bias"
      }
    }
  }
  attr {
    key: "use_locking"
    value {
      b: true
    }
  }
  attr {
    key: "validate_shape"
    value {
      b: true
    }
  }
}
node {
  name: "save/RestoreV2_10/tensor_names"
  op: "Const"
  attr {
    key: "dtype"
    value {
      type: DT_STRING
    }
  }
  attr {
    key: "value"
    value {
      tensor {
        dtype: DT_STRING
        tensor_shape {
          dim {
            size: 1
          }
        }
        string_val: "dense_1/kernel"
      }
    }
  }
}
node {
  name: "save/RestoreV2_10/shape_and_slices"
  op: "Const"
  attr {
    key: "dtype"
    value {
      type: DT_STRING
    }
  }
  attr {
    key: "value"
    value {
      tensor {
        dtype: DT_STRING
        tensor_shape {
          dim {
            size: 1
          }
        }
        string_val: ""
      }
    }
  }
}
node {
  name: "save/RestoreV2_10"
  op: "RestoreV2"
  input: "save/Const"
  input: "save/RestoreV2_10/tensor_names"
  input: "save/RestoreV2_10/shape_and_slices"
  attr {
    key: "dtypes"
    value {
      list {
        type: DT_FLOAT
      }
    }
  }
}
node {
  name: "save/Assign_10"
  op: "Assign"
  input: "dense_1/kernel"
  input: "save/RestoreV2_10"
  attr {
    key: "T"
    value {
      type: DT_FLOAT
    }
  }
  attr {
    key: "_class"
    value {
      list {
        s: "loc:@dense_1/kernel"
      }
    }
  }
  attr {
    key: "use_locking"
    value {
      b: true
    }
  }
  attr {
    key: "validate_shape"
    value {
      b: true
    }
  }
}
node {
  name: "save/RestoreV2_11/tensor_names"
  op: "Const"
  attr {
    key: "dtype"
    value {
      type: DT_STRING
    }
  }
  attr {
    key: "value"
    value {
      tensor {
        dtype: DT_STRING
        tensor_shape {
          dim {
            size: 1
          }
        }
        string_val: "dense_2/bias"
      }
    }
  }
}
node {
  name: "save/RestoreV2_11/shape_and_slices"
  op: "Const"
  attr {
    key: "dtype"
    value {
      type: DT_STRING
    }
  }
  attr {
    key: "value"
    value {
      tensor {
        dtype: DT_STRING
        tensor_shape {
          dim {
            size: 1
          }
        }
        string_val: ""
      }
    }
  }
}
node {
  name: "save/RestoreV2_11"
  op: "RestoreV2"
  input: "save/Const"
  input: "save/RestoreV2_11/tensor_names"
  input: "save/RestoreV2_11/shape_and_slices"
  attr {
    key: "dtypes"
    value {
      list {
        type: DT_FLOAT
      }
    }
  }
}
node {
  name: "save/Assign_11"
  op: "Assign"
  input: "dense_2/bias"
  input: "save/RestoreV2_11"
  attr {
    key: "T"
    value {
      type: DT_FLOAT
    }
  }
  attr {
    key: "_class"
    value {
      list {
        s: "loc:@dense_2/bias"
      }
    }
  }
  attr {
    key: "use_locking"
    value {
      b: true
    }
  }
  attr {
    key: "validate_shape"
    value {
      b: true
    }
  }
}
node {
  name: "save/RestoreV2_12/tensor_names"
  op: "Const"
  attr {
    key: "dtype"
    value {
      type: DT_STRING
    }
  }
  attr {
    key: "value"
    value {
      tensor {
        dtype: DT_STRING
        tensor_shape {
          dim {
            size: 1
          }
        }
        string_val: "dense_2/kernel"
      }
    }
  }
}
node {
  name: "save/RestoreV2_12/shape_and_slices"
  op: "Const"
  attr {
    key: "dtype"
    value {
      type: DT_STRING
    }
  }
  attr {
    key: "value"
    value {
      tensor {
        dtype: DT_STRING
        tensor_shape {
          dim {
            size: 1
          }
        }
        string_val: ""
      }
    }
  }
}
node {
  name: "save/RestoreV2_12"
  op: "RestoreV2"
  input: "save/Const"
  input: "save/RestoreV2_12/tensor_names"
  input: "save/RestoreV2_12/shape_and_slices"
  attr {
    key: "dtypes"
    value {
      list {
        type: DT_FLOAT
      }
    }
  }
}
node {
  name: "save/Assign_12"
  op: "Assign"
  input: "dense_2/kernel"
  input: "save/RestoreV2_12"
  attr {
    key: "T"
    value {
      type: DT_FLOAT
    }
  }
  attr {
    key: "_class"
    value {
      list {
        s: "loc:@dense_2/kernel"
      }
    }
  }
  attr {
    key: "use_locking"
    value {
      b: true
    }
  }
  attr {
    key: "validate_shape"
    value {
      b: true
    }
  }
}
node {
  name: "save/RestoreV2_13/tensor_names"
  op: "Const"
  attr {
    key: "dtype"
    value {
      type: DT_STRING
    }
  }
  attr {
    key: "value"
    value {
      tensor {
        dtype: DT_STRING
        tensor_shape {
          dim {
            size: 1
          }
        }
        string_val: "training/Adam/Variable"
      }
    }
  }
}
node {
  name: "save/RestoreV2_13/shape_and_slices"
  op: "Const"
  attr {
    key: "dtype"
    value {
      type: DT_STRING
    }
  }
  attr {
    key: "value"
    value {
      tensor {
        dtype: DT_STRING
        tensor_shape {
          dim {
            size: 1
          }
        }
        string_val: ""
      }
    }
  }
}
node {
  name: "save/RestoreV2_13"
  op: "RestoreV2"
  input: "save/Const"
  input: "save/RestoreV2_13/tensor_names"
  input: "save/RestoreV2_13/shape_and_slices"
  attr {
    key: "dtypes"
    value {
      list {
        type: DT_FLOAT
      }
    }
  }
}
node {
  name: "save/Assign_13"
  op: "Assign"
  input: "training/Adam/Variable"
  input: "save/RestoreV2_13"
  attr {
    key: "T"
    value {
      type: DT_FLOAT
    }
  }
  attr {
    key: "_class"
    value {
      list {
        s: "loc:@training/Adam/Variable"
      }
    }
  }
  attr {
    key: "use_locking"
    value {
      b: true
    }
  }
  attr {
    key: "validate_shape"
    value {
      b: true
    }
  }
}
node {
  name: "save/RestoreV2_14/tensor_names"
  op: "Const"
  attr {
    key: "dtype"
    value {
      type: DT_STRING
    }
  }
  attr {
    key: "value"
    value {
      tensor {
        dtype: DT_STRING
        tensor_shape {
          dim {
            size: 1
          }
        }
        string_val: "training/Adam/Variable_1"
      }
    }
  }
}
node {
  name: "save/RestoreV2_14/shape_and_slices"
  op: "Const"
  attr {
    key: "dtype"
    value {
      type: DT_STRING
    }
  }
  attr {
    key: "value"
    value {
      tensor {
        dtype: DT_STRING
        tensor_shape {
          dim {
            size: 1
          }
        }
        string_val: ""
      }
    }
  }
}
node {
  name: "save/RestoreV2_14"
  op: "RestoreV2"
  input: "save/Const"
  input: "save/RestoreV2_14/tensor_names"
  input: "save/RestoreV2_14/shape_and_slices"
  attr {
    key: "dtypes"
    value {
      list {
        type: DT_FLOAT
      }
    }
  }
}
node {
  name: "save/Assign_14"
  op: "Assign"
  input: "training/Adam/Variable_1"
  input: "save/RestoreV2_14"
  attr {
    key: "T"
    value {
      type: DT_FLOAT
    }
  }
  attr {
    key: "_class"
    value {
      list {
        s: "loc:@training/Adam/Variable_1"
      }
    }
  }
  attr {
    key: "use_locking"
    value {
      b: true
    }
  }
  attr {
    key: "validate_shape"
    value {
      b: true
    }
  }
}
node {
  name: "save/RestoreV2_15/tensor_names"
  op: "Const"
  attr {
    key: "dtype"
    value {
      type: DT_STRING
    }
  }
  attr {
    key: "value"
    value {
      tensor {
        dtype: DT_STRING
        tensor_shape {
          dim {
            size: 1
          }
        }
        string_val: "training/Adam/Variable_10"
      }
    }
  }
}
node {
  name: "save/RestoreV2_15/shape_and_slices"
  op: "Const"
  attr {
    key: "dtype"
    value {
      type: DT_STRING
    }
  }
  attr {
    key: "value"
    value {
      tensor {
        dtype: DT_STRING
        tensor_shape {
          dim {
            size: 1
          }
        }
        string_val: ""
      }
    }
  }
}
node {
  name: "save/RestoreV2_15"
  op: "RestoreV2"
  input: "save/Const"
  input: "save/RestoreV2_15/tensor_names"
  input: "save/RestoreV2_15/shape_and_slices"
  attr {
    key: "dtypes"
    value {
      list {
        type: DT_FLOAT
      }
    }
  }
}
node {
  name: "save/Assign_15"
  op: "Assign"
  input: "training/Adam/Variable_10"
  input: "save/RestoreV2_15"
  attr {
    key: "T"
    value {
      type: DT_FLOAT
    }
  }
  attr {
    key: "_class"
    value {
      list {
        s: "loc:@training/Adam/Variable_10"
      }
    }
  }
  attr {
    key: "use_locking"
    value {
      b: true
    }
  }
  attr {
    key: "validate_shape"
    value {
      b: true
    }
  }
}
node {
  name: "save/RestoreV2_16/tensor_names"
  op: "Const"
  attr {
    key: "dtype"
    value {
      type: DT_STRING
    }
  }
  attr {
    key: "value"
    value {
      tensor {
        dtype: DT_STRING
        tensor_shape {
          dim {
            size: 1
          }
        }
        string_val: "training/Adam/Variable_11"
      }
    }
  }
}
node {
  name: "save/RestoreV2_16/shape_and_slices"
  op: "Const"
  attr {
    key: "dtype"
    value {
      type: DT_STRING
    }
  }
  attr {
    key: "value"
    value {
      tensor {
        dtype: DT_STRING
        tensor_shape {
          dim {
            size: 1
          }
        }
        string_val: ""
      }
    }
  }
}
node {
  name: "save/RestoreV2_16"
  op: "RestoreV2"
  input: "save/Const"
  input: "save/RestoreV2_16/tensor_names"
  input: "save/RestoreV2_16/shape_and_slices"
  attr {
    key: "dtypes"
    value {
      list {
        type: DT_FLOAT
      }
    }
  }
}
node {
  name: "save/Assign_16"
  op: "Assign"
  input: "training/Adam/Variable_11"
  input: "save/RestoreV2_16"
  attr {
    key: "T"
    value {
      type: DT_FLOAT
    }
  }
  attr {
    key: "_class"
    value {
      list {
        s: "loc:@training/Adam/Variable_11"
      }
    }
  }
  attr {
    key: "use_locking"
    value {
      b: true
    }
  }
  attr {
    key: "validate_shape"
    value {
      b: true
    }
  }
}
node {
  name: "save/RestoreV2_17/tensor_names"
  op: "Const"
  attr {
    key: "dtype"
    value {
      type: DT_STRING
    }
  }
  attr {
    key: "value"
    value {
      tensor {
        dtype: DT_STRING
        tensor_shape {
          dim {
            size: 1
          }
        }
        string_val: "training/Adam/Variable_12"
      }
    }
  }
}
node {
  name: "save/RestoreV2_17/shape_and_slices"
  op: "Const"
  attr {
    key: "dtype"
    value {
      type: DT_STRING
    }
  }
  attr {
    key: "value"
    value {
      tensor {
        dtype: DT_STRING
        tensor_shape {
          dim {
            size: 1
          }
        }
        string_val: ""
      }
    }
  }
}
node {
  name: "save/RestoreV2_17"
  op: "RestoreV2"
  input: "save/Const"
  input: "save/RestoreV2_17/tensor_names"
  input: "save/RestoreV2_17/shape_and_slices"
  attr {
    key: "dtypes"
    value {
      list {
        type: DT_FLOAT
      }
    }
  }
}
node {
  name: "save/Assign_17"
  op: "Assign"
  input: "training/Adam/Variable_12"
  input: "save/RestoreV2_17"
  attr {
    key: "T"
    value {
      type: DT_FLOAT
    }
  }
  attr {
    key: "_class"
    value {
      list {
        s: "loc:@training/Adam/Variable_12"
      }
    }
  }
  attr {
    key: "use_locking"
    value {
      b: true
    }
  }
  attr {
    key: "validate_shape"
    value {
      b: true
    }
  }
}
node {
  name: "save/RestoreV2_18/tensor_names"
  op: "Const"
  attr {
    key: "dtype"
    value {
      type: DT_STRING
    }
  }
  attr {
    key: "value"
    value {
      tensor {
        dtype: DT_STRING
        tensor_shape {
          dim {
            size: 1
          }
        }
        string_val: "training/Adam/Variable_13"
      }
    }
  }
}
node {
  name: "save/RestoreV2_18/shape_and_slices"
  op: "Const"
  attr {
    key: "dtype"
    value {
      type: DT_STRING
    }
  }
  attr {
    key: "value"
    value {
      tensor {
        dtype: DT_STRING
        tensor_shape {
          dim {
            size: 1
          }
        }
        string_val: ""
      }
    }
  }
}
node {
  name: "save/RestoreV2_18"
  op: "RestoreV2"
  input: "save/Const"
  input: "save/RestoreV2_18/tensor_names"
  input: "save/RestoreV2_18/shape_and_slices"
  attr {
    key: "dtypes"
    value {
      list {
        type: DT_FLOAT
      }
    }
  }
}
node {
  name: "save/Assign_18"
  op: "Assign"
  input: "training/Adam/Variable_13"
  input: "save/RestoreV2_18"
  attr {
    key: "T"
    value {
      type: DT_FLOAT
    }
  }
  attr {
    key: "_class"
    value {
      list {
        s: "loc:@training/Adam/Variable_13"
      }
    }
  }
  attr {
    key: "use_locking"
    value {
      b: true
    }
  }
  attr {
    key: "validate_shape"
    value {
      b: true
    }
  }
}
node {
  name: "save/RestoreV2_19/tensor_names"
  op: "Const"
  attr {
    key: "dtype"
    value {
      type: DT_STRING
    }
  }
  attr {
    key: "value"
    value {
      tensor {
        dtype: DT_STRING
        tensor_shape {
          dim {
            size: 1
          }
        }
        string_val: "training/Adam/Variable_14"
      }
    }
  }
}
node {
  name: "save/RestoreV2_19/shape_and_slices"
  op: "Const"
  attr {
    key: "dtype"
    value {
      type: DT_STRING
    }
  }
  attr {
    key: "value"
    value {
      tensor {
        dtype: DT_STRING
        tensor_shape {
          dim {
            size: 1
          }
        }
        string_val: ""
      }
    }
  }
}
node {
  name: "save/RestoreV2_19"
  op: "RestoreV2"
  input: "save/Const"
  input: "save/RestoreV2_19/tensor_names"
  input: "save/RestoreV2_19/shape_and_slices"
  attr {
    key: "dtypes"
    value {
      list {
        type: DT_FLOAT
      }
    }
  }
}
node {
  name: "save/Assign_19"
  op: "Assign"
  input: "training/Adam/Variable_14"
  input: "save/RestoreV2_19"
  attr {
    key: "T"
    value {
      type: DT_FLOAT
    }
  }
  attr {
    key: "_class"
    value {
      list {
        s: "loc:@training/Adam/Variable_14"
      }
    }
  }
  attr {
    key: "use_locking"
    value {
      b: true
    }
  }
  attr {
    key: "validate_shape"
    value {
      b: true
    }
  }
}
node {
  name: "save/RestoreV2_20/tensor_names"
  op: "Const"
  attr {
    key: "dtype"
    value {
      type: DT_STRING
    }
  }
  attr {
    key: "value"
    value {
      tensor {
        dtype: DT_STRING
        tensor_shape {
          dim {
            size: 1
          }
        }
        string_val: "training/Adam/Variable_15"
      }
    }
  }
}
node {
  name: "save/RestoreV2_20/shape_and_slices"
  op: "Const"
  attr {
    key: "dtype"
    value {
      type: DT_STRING
    }
  }
  attr {
    key: "value"
    value {
      tensor {
        dtype: DT_STRING
        tensor_shape {
          dim {
            size: 1
          }
        }
        string_val: ""
      }
    }
  }
}
node {
  name: "save/RestoreV2_20"
  op: "RestoreV2"
  input: "save/Const"
  input: "save/RestoreV2_20/tensor_names"
  input: "save/RestoreV2_20/shape_and_slices"
  attr {
    key: "dtypes"
    value {
      list {
        type: DT_FLOAT
      }
    }
  }
}
node {
  name: "save/Assign_20"
  op: "Assign"
  input: "training/Adam/Variable_15"
  input: "save/RestoreV2_20"
  attr {
    key: "T"
    value {
      type: DT_FLOAT
    }
  }
  attr {
    key: "_class"
    value {
      list {
        s: "loc:@training/Adam/Variable_15"
      }
    }
  }
  attr {
    key: "use_locking"
    value {
      b: true
    }
  }
  attr {
    key: "validate_shape"
    value {
      b: true
    }
  }
}
node {
  name: "save/RestoreV2_21/tensor_names"
  op: "Const"
  attr {
    key: "dtype"
    value {
      type: DT_STRING
    }
  }
  attr {
    key: "value"
    value {
      tensor {
        dtype: DT_STRING
        tensor_shape {
          dim {
            size: 1
          }
        }
        string_val: "training/Adam/Variable_2"
      }
    }
  }
}
node {
  name: "save/RestoreV2_21/shape_and_slices"
  op: "Const"
  attr {
    key: "dtype"
    value {
      type: DT_STRING
    }
  }
  attr {
    key: "value"
    value {
      tensor {
        dtype: DT_STRING
        tensor_shape {
          dim {
            size: 1
          }
        }
        string_val: ""
      }
    }
  }
}
node {
  name: "save/RestoreV2_21"
  op: "RestoreV2"
  input: "save/Const"
  input: "save/RestoreV2_21/tensor_names"
  input: "save/RestoreV2_21/shape_and_slices"
  attr {
    key: "dtypes"
    value {
      list {
        type: DT_FLOAT
      }
    }
  }
}
node {
  name: "save/Assign_21"
  op: "Assign"
  input: "training/Adam/Variable_2"
  input: "save/RestoreV2_21"
  attr {
    key: "T"
    value {
      type: DT_FLOAT
    }
  }
  attr {
    key: "_class"
    value {
      list {
        s: "loc:@training/Adam/Variable_2"
      }
    }
  }
  attr {
    key: "use_locking"
    value {
      b: true
    }
  }
  attr {
    key: "validate_shape"
    value {
      b: true
    }
  }
}
node {
  name: "save/RestoreV2_22/tensor_names"
  op: "Const"
  attr {
    key: "dtype"
    value {
      type: DT_STRING
    }
  }
  attr {
    key: "value"
    value {
      tensor {
        dtype: DT_STRING
        tensor_shape {
          dim {
            size: 1
          }
        }
        string_val: "training/Adam/Variable_3"
      }
    }
  }
}
node {
  name: "save/RestoreV2_22/shape_and_slices"
  op: "Const"
  attr {
    key: "dtype"
    value {
      type: DT_STRING
    }
  }
  attr {
    key: "value"
    value {
      tensor {
        dtype: DT_STRING
        tensor_shape {
          dim {
            size: 1
          }
        }
        string_val: ""
      }
    }
  }
}
node {
  name: "save/RestoreV2_22"
  op: "RestoreV2"
  input: "save/Const"
  input: "save/RestoreV2_22/tensor_names"
  input: "save/RestoreV2_22/shape_and_slices"
  attr {
    key: "dtypes"
    value {
      list {
        type: DT_FLOAT
      }
    }
  }
}
node {
  name: "save/Assign_22"
  op: "Assign"
  input: "training/Adam/Variable_3"
  input: "save/RestoreV2_22"
  attr {
    key: "T"
    value {
      type: DT_FLOAT
    }
  }
  attr {
    key: "_class"
    value {
      list {
        s: "loc:@training/Adam/Variable_3"
      }
    }
  }
  attr {
    key: "use_locking"
    value {
      b: true
    }
  }
  attr {
    key: "validate_shape"
    value {
      b: true
    }
  }
}
node {
  name: "save/RestoreV2_23/tensor_names"
  op: "Const"
  attr {
    key: "dtype"
    value {
      type: DT_STRING
    }
  }
  attr {
    key: "value"
    value {
      tensor {
        dtype: DT_STRING
        tensor_shape {
          dim {
            size: 1
          }
        }
        string_val: "training/Adam/Variable_4"
      }
    }
  }
}
node {
  name: "save/RestoreV2_23/shape_and_slices"
  op: "Const"
  attr {
    key: "dtype"
    value {
      type: DT_STRING
    }
  }
  attr {
    key: "value"
    value {
      tensor {
        dtype: DT_STRING
        tensor_shape {
          dim {
            size: 1
          }
        }
        string_val: ""
      }
    }
  }
}
node {
  name: "save/RestoreV2_23"
  op: "RestoreV2"
  input: "save/Const"
  input: "save/RestoreV2_23/tensor_names"
  input: "save/RestoreV2_23/shape_and_slices"
  attr {
    key: "dtypes"
    value {
      list {
        type: DT_FLOAT
      }
    }
  }
}
node {
  name: "save/Assign_23"
  op: "Assign"
  input: "training/Adam/Variable_4"
  input: "save/RestoreV2_23"
  attr {
    key: "T"
    value {
      type: DT_FLOAT
    }
  }
  attr {
    key: "_class"
    value {
      list {
        s: "loc:@training/Adam/Variable_4"
      }
    }
  }
  attr {
    key: "use_locking"
    value {
      b: true
    }
  }
  attr {
    key: "validate_shape"
    value {
      b: true
    }
  }
}
node {
  name: "save/RestoreV2_24/tensor_names"
  op: "Const"
  attr {
    key: "dtype"
    value {
      type: DT_STRING
    }
  }
  attr {
    key: "value"
    value {
      tensor {
        dtype: DT_STRING
        tensor_shape {
          dim {
            size: 1
          }
        }
        string_val: "training/Adam/Variable_5"
      }
    }
  }
}
node {
  name: "save/RestoreV2_24/shape_and_slices"
  op: "Const"
  attr {
    key: "dtype"
    value {
      type: DT_STRING
    }
  }
  attr {
    key: "value"
    value {
      tensor {
        dtype: DT_STRING
        tensor_shape {
          dim {
            size: 1
          }
        }
        string_val: ""
      }
    }
  }
}
node {
  name: "save/RestoreV2_24"
  op: "RestoreV2"
  input: "save/Const"
  input: "save/RestoreV2_24/tensor_names"
  input: "save/RestoreV2_24/shape_and_slices"
  attr {
    key: "dtypes"
    value {
      list {
        type: DT_FLOAT
      }
    }
  }
}
node {
  name: "save/Assign_24"
  op: "Assign"
  input: "training/Adam/Variable_5"
  input: "save/RestoreV2_24"
  attr {
    key: "T"
    value {
      type: DT_FLOAT
    }
  }
  attr {
    key: "_class"
    value {
      list {
        s: "loc:@training/Adam/Variable_5"
      }
    }
  }
  attr {
    key: "use_locking"
    value {
      b: true
    }
  }
  attr {
    key: "validate_shape"
    value {
      b: true
    }
  }
}
node {
  name: "save/RestoreV2_25/tensor_names"
  op: "Const"
  attr {
    key: "dtype"
    value {
      type: DT_STRING
    }
  }
  attr {
    key: "value"
    value {
      tensor {
        dtype: DT_STRING
        tensor_shape {
          dim {
            size: 1
          }
        }
        string_val: "training/Adam/Variable_6"
      }
    }
  }
}
node {
  name: "save/RestoreV2_25/shape_and_slices"
  op: "Const"
  attr {
    key: "dtype"
    value {
      type: DT_STRING
    }
  }
  attr {
    key: "value"
    value {
      tensor {
        dtype: DT_STRING
        tensor_shape {
          dim {
            size: 1
          }
        }
        string_val: ""
      }
    }
  }
}
node {
  name: "save/RestoreV2_25"
  op: "RestoreV2"
  input: "save/Const"
  input: "save/RestoreV2_25/tensor_names"
  input: "save/RestoreV2_25/shape_and_slices"
  attr {
    key: "dtypes"
    value {
      list {
        type: DT_FLOAT
      }
    }
  }
}
node {
  name: "save/Assign_25"
  op: "Assign"
  input: "training/Adam/Variable_6"
  input: "save/RestoreV2_25"
  attr {
    key: "T"
    value {
      type: DT_FLOAT
    }
  }
  attr {
    key: "_class"
    value {
      list {
        s: "loc:@training/Adam/Variable_6"
      }
    }
  }
  attr {
    key: "use_locking"
    value {
      b: true
    }
  }
  attr {
    key: "validate_shape"
    value {
      b: true
    }
  }
}
node {
  name: "save/RestoreV2_26/tensor_names"
  op: "Const"
  attr {
    key: "dtype"
    value {
      type: DT_STRING
    }
  }
  attr {
    key: "value"
    value {
      tensor {
        dtype: DT_STRING
        tensor_shape {
          dim {
            size: 1
          }
        }
        string_val: "training/Adam/Variable_7"
      }
    }
  }
}
node {
  name: "save/RestoreV2_26/shape_and_slices"
  op: "Const"
  attr {
    key: "dtype"
    value {
      type: DT_STRING
    }
  }
  attr {
    key: "value"
    value {
      tensor {
        dtype: DT_STRING
        tensor_shape {
          dim {
            size: 1
          }
        }
        string_val: ""
      }
    }
  }
}
node {
  name: "save/RestoreV2_26"
  op: "RestoreV2"
  input: "save/Const"
  input: "save/RestoreV2_26/tensor_names"
  input: "save/RestoreV2_26/shape_and_slices"
  attr {
    key: "dtypes"
    value {
      list {
        type: DT_FLOAT
      }
    }
  }
}
node {
  name: "save/Assign_26"
  op: "Assign"
  input: "training/Adam/Variable_7"
  input: "save/RestoreV2_26"
  attr {
    key: "T"
    value {
      type: DT_FLOAT
    }
  }
  attr {
    key: "_class"
    value {
      list {
        s: "loc:@training/Adam/Variable_7"
      }
    }
  }
  attr {
    key: "use_locking"
    value {
      b: true
    }
  }
  attr {
    key: "validate_shape"
    value {
      b: true
    }
  }
}
node {
  name: "save/RestoreV2_27/tensor_names"
  op: "Const"
  attr {
    key: "dtype"
    value {
      type: DT_STRING
    }
  }
  attr {
    key: "value"
    value {
      tensor {
        dtype: DT_STRING
        tensor_shape {
          dim {
            size: 1
          }
        }
        string_val: "training/Adam/Variable_8"
      }
    }
  }
}
node {
  name: "save/RestoreV2_27/shape_and_slices"
  op: "Const"
  attr {
    key: "dtype"
    value {
      type: DT_STRING
    }
  }
  attr {
    key: "value"
    value {
      tensor {
        dtype: DT_STRING
        tensor_shape {
          dim {
            size: 1
          }
        }
        string_val: ""
      }
    }
  }
}
node {
  name: "save/RestoreV2_27"
  op: "RestoreV2"
  input: "save/Const"
  input: "save/RestoreV2_27/tensor_names"
  input: "save/RestoreV2_27/shape_and_slices"
  attr {
    key: "dtypes"
    value {
      list {
        type: DT_FLOAT
      }
    }
  }
}
node {
  name: "save/Assign_27"
  op: "Assign"
  input: "training/Adam/Variable_8"
  input: "save/RestoreV2_27"
  attr {
    key: "T"
    value {
      type: DT_FLOAT
    }
  }
  attr {
    key: "_class"
    value {
      list {
        s: "loc:@training/Adam/Variable_8"
      }
    }
  }
  attr {
    key: "use_locking"
    value {
      b: true
    }
  }
  attr {
    key: "validate_shape"
    value {
      b: true
    }
  }
}
node {
  name: "save/RestoreV2_28/tensor_names"
  op: "Const"
  attr {
    key: "dtype"
    value {
      type: DT_STRING
    }
  }
  attr {
    key: "value"
    value {
      tensor {
        dtype: DT_STRING
        tensor_shape {
          dim {
            size: 1
          }
        }
        string_val: "training/Adam/Variable_9"
      }
    }
  }
}
node {
  name: "save/RestoreV2_28/shape_and_slices"
  op: "Const"
  attr {
    key: "dtype"
    value {
      type: DT_STRING
    }
  }
  attr {
    key: "value"
    value {
      tensor {
        dtype: DT_STRING
        tensor_shape {
          dim {
            size: 1
          }
        }
        string_val: ""
      }
    }
  }
}
node {
  name: "save/RestoreV2_28"
  op: "RestoreV2"
  input: "save/Const"
  input: "save/RestoreV2_28/tensor_names"
  input: "save/RestoreV2_28/shape_and_slices"
  attr {
    key: "dtypes"
    value {
      list {
        type: DT_FLOAT
      }
    }
  }
}
node {
  name: "save/Assign_28"
  op: "Assign"
  input: "training/Adam/Variable_9"
  input: "save/RestoreV2_28"
  attr {
    key: "T"
    value {
      type: DT_FLOAT
    }
  }
  attr {
    key: "_class"
    value {
      list {
        s: "loc:@training/Adam/Variable_9"
      }
    }
  }
  attr {
    key: "use_locking"
    value {
      b: true
    }
  }
  attr {
    key: "validate_shape"
    value {
      b: true
    }
  }
}
node {
  name: "save/restore_all"
  op: "NoOp"
  input: "^save/Assign"
  input: "^save/Assign_1"
  input: "^save/Assign_2"
  input: "^save/Assign_3"
  input: "^save/Assign_4"
  input: "^save/Assign_5"
  input: "^save/Assign_6"
  input: "^save/Assign_7"
  input: "^save/Assign_8"
  input: "^save/Assign_9"
  input: "^save/Assign_10"
  input: "^save/Assign_11"
  input: "^save/Assign_12"
  input: "^save/Assign_13"
  input: "^save/Assign_14"
  input: "^save/Assign_15"
  input: "^save/Assign_16"
  input: "^save/Assign_17"
  input: "^save/Assign_18"
  input: "^save/Assign_19"
  input: "^save/Assign_20"
  input: "^save/Assign_21"
  input: "^save/Assign_22"
  input: "^save/Assign_23"
  input: "^save/Assign_24"
  input: "^save/Assign_25"
  input: "^save/Assign_26"
  input: "^save/Assign_27"
  input: "^save/Assign_28"
}
versions {
  producer: 24
}
